output/best_model.pth (torch, 458978 bytes, 24 tensors)

encoder.0.0.weight f4 [64, 1, 3, 3]
0.04099862 -0.21627074 0.123266876 0.09965619 -0.20296094 -0.07049923 -0.17260003 0.05230807
-0.081354715 0.17659257 0.2444845 0.012918675 -0.17190863 -0.26753676 -0.06909002 -0.13029468
0.07945286 -0.2790215 0.28985366 -0.28353333 0.27316198 -0.100904725 0.19517763 0.0894358
0.023863131 0.05242326 0.23266819 0.066558115 0.17675635 -0.20245457 0.27942318 0.11943167
0.13715869 0.010380691 0.15685518 0.3038152 -0.11994133 -0.24554087 -0.12845987 -0.24192235
0.089898065 -0.16830741 -0.1369587 0.2988135 0.24460034 0.020937856 -0.12699413 -0.055688344
0.12882943 -0.33522907 -0.3006988 0.1597522 0.34046346 -0.012454683 -0.27954248 -0.011726084
-0.196506 -0.004995248 0.1611171 0.12035491 -0.039283797 0.02589756 0.017916474 -0.105024196
-0.08724476 0.03920582 -0.092865735 -0.22455703 0.08591466 0.19800985 -0.119833715 -0.18972957
0.21898712 -0.19980614 -0.08010018 0.25761327 0.02799079 -0.0038294515 0.100371815 -0.068174966
0.30368102 -0.32143494 -0.102738366 -0.037667815 -0.17916772 -0.061628804 0.22244567 0.19611661
0.04021509 0.21878241 -0.10217982 -0.082732804 0.16327803 -0.14350076 -0.29434162 -0.30844983
-0.19791545 0.25896907 0.10681413 0.25099245 -0.22945073 -0.20515878 -0.31623602 -0.095471606
-0.054905724 -0.18665026 0.26121852 -0.04593783 -0.15989083 0.15592085 -0.01740507 0.21557772
0.093047865 -0.013207791 0.036798343 -0.28851444 -0.20864154 -0.07973013 -0.19616222 0.0059348894
0.0051556802 -0.21591115 0.24001947 -0.16198973 -0.0032977199 -0.0915628 -0.29883754 -0.25309712
0.08946946 0.08889684 -0.25908342 -0.18846537 -0.32666487 0.14787474 0.24852037 0.0858959
-0.24520476 0.10328857 0.2514364 -0.13683014 -0.14511393 0.109528795 0.006636265 -0.118331484
-0.16211766 -0.1858914 0.03566889 0.019470153 0.39595354 0.0338277 -0.042145234 -0.3172734
-0.2062641 0.014373695 0.2660351 -0.042278137 -0.33868507 0.14488122 0.23791832 -0.27023217
-0.11394756 0.023197139 -0.12921587 -0.29146302 0.13465045 -0.20558143 -0.13410929 -0.27732983
0.2695859 0.046852373 0.110652626 -0.25068203 0.27666026 -0.023346761 -0.19208013 -0.0024971
-0.16547081 -0.0060784444 0.22286704 -0.16654937 0.28476316 0.11407157 -0.030964673 0.113086924
-0.038578104 -0.06819964 -0.2106636 0.20443298 0.20695134 0.039081044 0.20408136 0.2936828
0.31557402 -0.3617178 0.0600446 -0.02948685 0.15369682 -0.02083467 0.055768985 -0.32450408
0.13571377 0.26989564 -0.14851142 -0.30608785 -0.26099586 -0.11830957 -0.0128293345 0.013127445
0.038394563 0.2513962 -0.12992164 0.11350211 -0.1997212 0.31019285 0.10236462 -0.06454373
0.21443884 0.106304295 0.05226527 -0.090364896 -0.015952073 -0.0031860129 -0.22811404 -0.08485019
0.057988837 -0.20183793 0.055598326 -0.12747568 -0.31097925 -0.2359443 -0.27434918 0.046119493
0.16856828 0.28398722 0.22847334 0.108017206 0.14948195 -0.07147106 0.2622058 -0.1097651
-0.16770725 -0.21724643 -0.2488771 -0.22670183 -0.071479894 0.24306494 -0.14393163 -0.35183942
-0.18740888 0.2842115 0.074004866 -0.07065508 -0.1723777 0.28028047 -0.36738476 0.12950964
00000000: 2bee 273d 1476 5dbe 5873 fc3d 8b18 cc3d
00000010: fed4 4fbe e661 90bd 10be 30be fd40 563d
00000020: 4d9d a6bd afd4 343e 255a 7a3e daa8 533c
00000030: d108 30be 94fa 88be 127f 8dbd f86b 05be
00000040: 2eb8 a23d e8db 8ebe b367 943e 482b 91be
00000050: e3db 8b3e 23a7 cebd a5dc 473e 1e2a b73d
00000060: 9d7c c33c c6b9 563d 9240 6e3e 9f4f 883d
00000070: 9eff 343e 4050 4fbe 8e10 8f3e 9798 f43d
00000080: 5473 0c3e c613 2a3c a59e 203e aa8d 9b3e
00000090: cda3 f5bd 116f 7bbe fc8a 03be 7eba 77be
000000a0: 7a1c b83d c758 2cbe e73e 0cbe 15fe 983e
000000b0: 8378 7a3e de85 ab3c c00a 02be 7619 64bd
000000c0: ddeb 033e 25a3 abbe 31f5 99be 1596 233e
000000d0: 3a51 ae3e ba0e 4cbc 3120 8fbe c31e 40bc
000000e0: de38 49be 2daf a3bb e2fb 243e a37c f63d
000000f0: 0ce8 20bd 1f27 d43c 92c5 923c ed16 d7bd
00000100: 61ad b2bd 4896 203d 6430 bebd 47f2 65be
00000110: 06f4 af3d 18c3 4a3e 616b f5bd 7848 42be
00000120: 293e 603e fb99 4cbe 900b a4bd e3e5 833e
00000130: f14c e53c 89f7 7abb bd8f cd3d 519f 8bbd
00000140: 147c 9b3e 1f93 a4be 7e68 d2bd 9149 1abd
00000150: be77 37be 7c6e 7cbd ccc8 633e cbd2 483e
00000160: 94b8 243d 7f08 603e a743 d1bd d16f a9bd
00000170: 5b32 273e ddf1 12be f2b3 96be 23ed 9dbe
00000180: 59aa 4abe 9897 843e 5ec1 da3d 1582 803e
00000190: 22f5 6abe 2515 52be b0e9 a1be 9e86 c3bd
000001a0: d3e4 60bd 3f21 3fbe 6fbe 853e 4e29 3cbd
000001b0: 6cba 23be b7a9 1f3e 1495 8ebc 68c0 5c3e
000001c0: e18f be3d 7e65 58bc dcb9 163d 2ab8 93be
000001d0: 21a6 55be 8d49 a3bd c0de 48be 7679 c23b
000001e0: fbf0 a83b d017 5dbe aac7 753e a3e0 25be
000001f0: 8f1e 58bb 4785 bbbd 3c01 99be f295 81be
00000200: c43b b73d 8c0f b63d 95a6 84be 11fd 40be
00000210: 9e40 a7be 7a6c 173e 207c 7e3e 31ea af3d
00000220: f516 7bbe f588 d33d 46bc 803e 331d 0cbe
00000230: bf98 14be a250 e03d 0775 d93b c757 f2bd
00000240: 2c02 26be 515a 3ebe 8b19 123d df7f 9f3c
00000250: 6cba ca3e ea8e 0a3d 7ba0 2cbd a971 a2be
00000260: e536 53be a57f 6b3c c135 883e d72b 2dbd
00000270: 2168 adbe be5b 143e dca0 733e df5b 8abe
00000280: 575d e9bd ed07 be3c 2a51 04be a43a 95be
00000290: cfe1 093e f083 52be f253 09be 2dfe 8dbe
000002a0: 2a07 8a3e 46e8 3f3d d89d e23d 6559 80be
000002b0: 6aa6 8d3e b541 bfbc a7b0 44be 63a6 23bb
000002c0: 2e71 29be b02d c7bb 4237 643e eb8b 2abe
000002d0: 7acc 913e 5b9e e93d a0a9 fdbc 1e9a e73d
000002e0: 1304 1ebd 41ac 8bbd 33b8 57be e156 513e
000002f0: 0deb 533e 7213 203d b4fa 503e 985d 963e
00000300: eb92 a13e 1333 b9be 54f1 753d 688e f1bc
00000310: b362 1d3e 78ad aabc 056e 643d 6625 a6be
00000320: 8df8 0a3e c32f 8a3e 6113 18be 8cb7 9cbe
00000330: 40a1 85be 4a4c f2bd 2132 52bc 7f14 573c
00000340: 9e43 1d3d 01b7 803e 2e0a 05be cb73 e83d
00000350: b783 4cbe 99d1 9e3e 8ba4 d13d 812f 84bd
00000360: db95 5b3e 11b6 d93d 1c14 563d 3b11 b9bd
00000370: ecad 82bc 6dcc 50bb ba96 69be f0c5 adbd
00000380: b485 6d3d 9aae 4ebe 12bb 633d fc88 02be
00000390: ac38 9fbe 629b 71be 7f77 8cbe cbe7 3c3d
000003a0: 2a9d 2c3e c666 913e eaf4 693e 2038 dd3d
000003b0: cc11 193e 6b5f 92bd d73f 863e 86cc e0bd
000003c0: 73bb 2bbe d975 5ebe a3d9 7ebe 8624 68be
000003d0: 0d64 92bd 04e6 783e d062 13be 4c24 b4be
000003e0: 1de8 3fbe 2b84 913e dd8f 973d 9cb3 90bd
000003f0: c883 30be ec80 8f3e db19 bcbe 2d9e 043e

encoder.0.0.bias f4 [64]
0.14707276 0.16202177 -0.2802857 0.11086224 -0.1781612 0.13557217 -0.15588418 0.102276705
-0.0065151034 -0.25063968 -0.25490728 -0.12680678 0.25100732 -0.14313813 -0.12285417 -0.1574458
-0.30968106 0.00664378 -0.014469846 0.109072946 0.33625227 -0.27515176 -0.12214313 0.1104259
-0.26878235 0.025307985 -0.1713118 0.16006275 -0.0018166513 0.052845925 0.1630037 -0.20552428
-0.24425569 0.20110953 0.08449237 0.015454337 0.30751425 0.27948096 -0.1613232 -0.12077435
0.1838382 -0.16225082 -0.3318016 -0.20980637 -0.27884007 0.2354884 -0.015648605 -0.3228995
-0.0350177 0.29737133 -0.22839125 -0.12046896 0.100827515 -0.26017055 -0.2333831 0.19312815
-0.034688145 0.15673195 -0.039109014 0.38410294 -0.09461859 0.2620608 -0.17098892 -0.107641906
00000000: 3e9a 163e 09e9 253e 9b81 8fbe be0b e33d
00000010: e46f 36be 6ed3 0a3e 1aa0 1fbe 7376 d13d
00000020: a67c d5bb d853 80be 3583 82be a3d9 01be
00000030: 0884 803e cd92 12be f89a fbbd 7939 21be
00000040: 848e 9ebe 11b4 d93b ef12 6dbc a361 df3d
00000050: 4229 ac3e b1e0 8cbe 2d26 fabd f926 e23d
00000060: d79d 89be b152 cf3c 5c6c 2fbe 7de7 233e
00000070: b41c eeba f874 583d 71ea 263e f574 52be
00000080: 2a1e 7abe a8ef 4d3e 560a ad3d 3034 7d3c
00000090: 8272 9d3e 2118 8f3e e931 25be 8b58 f7bd
000000a0: 1540 3c3e 1425 26be e6e1 a9be 7bd7 56be
000000b0: 20c4 8ebe df23 713e 8131 80bc 1553 a5be
000000c0: b86e 0fbd 0e41 983e 65df 69be 6eb8 f6bd
000000d0: a87e ce3d 1335 85be fbfb 6ebe 63c3 453e
000000e0: 2815 0ebd 577e 203e c630 20bd 24a9 c43e
000000f0: 64c7 c1bd d52c 863e b817 2fbe 5c73 dcbd

encoder.0.1.weight f4 [64]
1.1542964 0.9830991 0.9270639 0.9090683 0.9967138 0.9623282 0.9406035 1.1462663
0.95427305 0.98577917 1.1384897 1.1705463 0.99241436 1.0884749 0.9826754 0.9769385
1.0515924 1.0030403 1.0246059 1.0641211 0.90614074 0.9724934 1.0911117 0.95794195
0.94498754 0.9835374 0.96696043 1.0638434 1.032108 0.9068198 1.2419292 1.0437827
1.0743908 0.9187577 1.0834094 0.9435396 1.1778226 1.067381 0.9648984 1.010023
0.9960393 0.9413493 0.92757124 1.0076325 0.97735715 0.93850034 1.3173499 1.0521948
0.91640526 1.0469093 0.9562774 0.9046711 0.9224284 1.0110741 0.99899954 0.98053646
0.93934107 1.0623282 0.88489836 0.92114204 0.9843298 1.0100553 1.2051299 1.0688539
00000000: fcbf 933f 62ac 7b3f 0f54 6d3f b3b8 683f
00000010: a328 7f3f 245b 763f 64cb 703f dbb8 923f
00000020: 3d4b 743f 065c 7c3f 08ba 913f 76d4 953f
00000030: de0e 7e3f 2553 8b3f 9d90 7b3f a418 7a3f
00000040: 949a 863f a063 803f 4926 833f 1f35 883f
00000050: d7f8 673f 54f5 783f 8ca9 8b3f af3b 753f
00000060: b4ea 713f 1bc9 7b3f b88a 773f 052c 883f
00000070: 1d1c 843f 5825 683f 89f7 9e3f ac9a 853f
00000080: a385 893f b433 6b3f 29ad 8a3f d08b 713f
00000090: e4c2 963f f19f 883f 9503 773f 6f48 813f
000000a0: 6efc 7e3f 45fc 703f 4f75 6d3f 1afa 803f
000000b0: 1434 7a3f 8f41 703f ec9e a83f 52ae 863f
000000c0: 8999 6a3f 2001 863f 98ce 743f 8698 673f
000000d0: 4524 6c3f e06a 813f 6fbe 7f3f 7004 7b3f
000000e0: a878 703f 5ffa 873f b388 623f f7cf 6b3f
000000f0: 0afd 7b3f 7e49 813f b241 9a3f 34d0 883f

encoder.0.1.bias f4 [64]
-0.039794464 -0.03768754 -0.19239531 -0.09495645 -0.021879038 -0.11863543 -0.016657814 -0.06884073
-0.06966779 -0.04202449 -0.048932035 -0.05664995 -0.03292608 -0.07803087 -0.05883812 -0.11645533
0.038818885 -0.07417605 -0.006969041 -0.041373324 -0.1210438 -0.16783816 -0.07503976 -0.14192984
-0.10143734 0.016043082 -0.06729869 -0.08373354 0.013675163 0.0032554974 -0.05898719 -0.026601486
-0.03913001 -0.13535716 -0.12710975 -0.034720004 -0.033417996 0.037992693 -0.12615336 -0.029174414
0.027125886 -0.12160369 -0.19093297 -0.060254883 -0.054552004 -0.14115477 -0.1678279 -0.042656723
-0.079434104 -0.010427764 -0.170279 -0.13554533 -0.1343668 -0.020943526 -0.025588365 0.070560515
-0.13252763 -0.016114736 -0.10637772 -0.14254917 -0.040994365 -0.08338529 -0.021304002 -0.028480474
00000000: 85ff 22bd 405e 1abd 4703 45be 8778 c2bd
00000010: ab3b b3bc 22f7 f2bd f875 88bc 5efc 8cbd
00000020: fcad 8ebd df21 2cbd f56c 48bd c709 68bd
00000030: 7fdd 06bd a6ce 9fbd 3e00 71bd 2280 eebd
00000040: 8d00 1f3d 9de9 97bd 8e5c e4bb 1377 29bd
00000050: d0e5 f7bd c4dd 2bbe 72ae 99bd 0e56 11be
00000060: 61be cfbd c86c 833c e5d3 89bd 7d7c abbd
00000070: ca0d 603c 2f5a 553b 8d9c 71bd 5ceb d9bc
00000080: ca46 20bd 119b 0abe 0f29 02be 9036 0ebd
00000090: 4fe1 08bd 3a9e 1b3d 592e 01be 2eff eebc
000000a0: 1b37 de3c 5b0b f9bd ef83 43be d3cd 76bd
000000b0: ec71 5fbd e08a 10be 14db 2bbe d1b8 2ebd
000000c0: 59ae a2bd 36d9 2abc 9e5d 2ebe 65cc 0abe
000000d0: 7397 09be c291 abbc b19e d1bc 0882 903d
000000e0: 53b5 07be 0d03 84bc 90dc d9bd 69f8 11be
000000f0: b5e9 27bd e8c5 aabd bb85 aebc e24f e9bc

encoder.0.1.running_mean f4 [64]
0.11156073 0.12883419 -0.22105011 0.19301194 -0.21052754 0.12147615 -0.17093998 0.06325887
0.037614066 -0.25212607 -0.30182302 -0.17714007 0.23637292 -0.18196258 -0.183165 -0.1637643
-0.3437366 0.0017512394 -0.051139347 0.085870564 0.38149983 -0.2244036 -0.1761974 0.14342223
-0.26816848 -0.022401728 -0.17567185 0.12475519 -0.023715692 0.035002895 0.12266821 -0.2542386
-0.26966894 0.2178551 0.009664409 -0.008154086 0.26579285 0.2513288 -0.17067967 -0.14528088
0.15949382 -0.1379243 -0.28552684 -0.21637441 -0.2844334 0.24393699 -0.07864938 -0.32273787
-0.012651347 0.26580736 -0.20435216 -0.09456866 0.13617083 -0.29175317 -0.2571527 0.15968944
-0.018322885 0.11492171 0.0023619698 0.4052049 -0.090065606 0.2621485 -0.22918315 -0.12656249
00000000: f479 e43d 1ced 033e f65a 62be eca4 453e
00000010: 8894 57be 7dc8 f83d e40a 2fbe de8d 813d
00000020: 3511 1a3d ab16 81be 8c88 9abe 3564 35be
00000030: be0b 723e 6654 3abe 9b8f 3bbe d4b1 27be
00000040: 3efe afbe d889 e53a 7e77 51bd e8dc af3d
00000050: f253 c33e 0fca 65be 176d 34be 47dd 123e
00000060: 614d 89be d483 b7bc 52e3 33be a67f ff3d
00000070: 6947 c2bc 325f 0f3d 7839 fb3d 902b 82be
00000080: 0c12 8abe 6815 5f3e 7857 1e3c b798 05bc
00000090: 0016 883e 2bae 803e a7c6 2ebe 83c4 14be
000000a0: 5952 233e 073c 0dbe 9330 92be 4191 5dbe
000000b0: 41a1 91be 9eca 793e ed12 a1bd e63d a5be
000000c0: 9847 4fbc e717 883e b141 51be 37ad c1bd
000000d0: 5e70 0b3e ac60 95be 85a9 83be a185 233e
000000e0: e019 96bc 135c eb3d 47cb 1a3b 0477 cf3e
000000f0: 5174 b8bd 5438 863e fdae 6abe 9999 01be

encoder.0.1.running_var f4 [64]
0.0100774225 0.020627258 0.023619667 0.043021727 0.027030036 0.024760118 0.009768394 0.014211867
0.020281259 0.023153426 0.026364839 0.022670403 0.012140339 0.014281808 0.03568784 0.012153289
0.016646447 0.02389564 0.025801556 0.014347884 0.016796397 0.020027492 0.027510561 0.012978522
0.009075716 0.034608487 0.022290284 0.025486128 0.011794138 0.020354213 0.018513322 0.042066343
0.013266878 0.026484594 0.042882226 0.02042301 0.025514837 0.03554359 0.01153303 0.018817246
0.015242133 0.014088784 0.016371962 0.013154562 0.011739307 0.016032774 0.03212401 0.04151928
0.0145711815 0.018293204 0.015487167 0.018709539 0.023255298 0.016895143 0.016854646 0.022847952
0.023010354 0.030334119 0.019937972 0.017876958 0.041259173 0.0076494305 0.031684544 0.013103568
00000000: c61b 253c 7ffa a83c 087e c13c 8d37 303d
00000010: 186e dd3c bbd5 ca3c 9d0b 203c e4d8 683c
00000020: e224 a63c 41ac bd3c 13fb d73c 48b7 b93c
00000030: 46e8 463c 3ffe 693c 6a2d 123d 971e 473c
00000040: 215e 883c cac0 c33c c95d d33c 6313 6b3c
00000050: 9998 893c b210 a43c d45d e13c dea3 543c
00000060: 50b2 143c a1c1 0d3d 1d9a b63c 49c8 d03c
00000070: 333c 413c e1bd a63c 40a9 973c c24d 2c3d
00000080: 525d 593c 38f6 d83c 46a5 2f3d 284e a73c
00000090: 7e04 d13c 2896 113d 09f5 3c3c a026 9a3c
000000a0: 24ba 793c a5d4 663c 7e1e 863c 3b86 573c
000000b0: 3956 403c 2a57 833c 7794 033d 1f10 2a3d
000000c0: f7bb 6e3c a1db 953c e3bd 7d3c bf44 993c
000000d0: e581 be3c af67 8a3c c112 8a3c a12b bb3c
000000e0: 3680 bc3c 427f f83c f554 a33c b372 923c
000000f0: 61ff 283d 13a8 fa3b a7c7 013d 59b0 563c

encoder.1.0.weight f4 [64, 64, 3, 3]
0.02181213 -0.059511922 -0.033556655 0.009473853 0.06620382 0.029822364 0.037378237 0.063576415
-0.010741072 0.02471141 -0.04540833 -0.04634905 0.0066697015 -0.07231057 0.035659775 0.024100425
-0.027222736 -0.027038958 0.032965243 -0.0514431 0.022443412 -0.034976248 -0.031436116 -0.018707013
0.04674248 -0.014074604 -0.04539345 0.009205096 -0.031021096 -0.020430489 0.019205019 0.005839776
-0.034500033 -0.00044684028 0.0040789917 -0.0040633064 -0.03901995 -0.03012 0.02134805 0.009814096
0.07342794 0.02453834 -0.052703496 0.0001720585 -0.028097674 0.0076497365 -0.020699682 0.007314303
-0.024114002 -0.028520565 0.04501751 0.009213557 0.02000779 0.033079643 -0.010923914 0.009049371
0.011124194 -0.020434385 0.020372314 0.011049241 -0.023419261 0.0026543986 -0.024106206 -0.01328048
-0.08170201 -0.013666884 0.07589332 0.004680764 0.044934828 -0.036148313 -0.030812316 0.02996509
-0.022181932 -0.03075694 0.037028395 -0.023626834 0.01861882 -0.001802863 -0.017487815 0.041687805
-0.02676049 0.025729185 0.023036078 0.006707799 0.023354 0.009275915 0.031623658 -0.01822308
-0.06540365 -0.036042735 -0.039928522 -0.0085677 0.003208888 0.01584526 0.09242213 0.037285455
-0.075798616 0.06252287 -0.006201277 -0.04033705 -0.05952898 0.04970211 0.0460701 0.092654034
0.030810403 0.033049833 -0.0099590095 0.06084645 0.022797855 0.049020417 0.00240925 -0.035487372
-0.05555251 -0.0143222045 0.048037115 -0.009900761 0.014627602 -0.025274692 -0.033458333 -0.03206893
0.056915797 0.04547421 -0.031252727 0.054120563 0.012797731 0.01910473 -0.050225653 -0.05521657
0.0148877995 -0.014812404 0.03741642 0.022504311 -0.0578099 0.031086242 -0.006685626 0.039586943
-0.028791461 0.016488632 0.0021953892 0.002108022 -0.008052243 0.042006306 -0.0391315 0.0337447
-0.010198718 -0.025987726 -0.016251054 -0.030205064 -0.051102184 0.025576279 -0.033185504 -0.05137249
-0.008268163 0.0012711163 0.036931507 -0.0011580104 0.033680335 0.023325434 -0.008755393 0.009349773
0.0178106 0.017166063 -0.03356525 -0.039632257 -0.044293918 -0.016090449 -0.030385084 0.023780566
-0.061923515 -0.0046089217 0.016300185 0.023927703 0.01773302 -0.012857081 0.046226297 -0.0062180166
0.061049726 0.05424931 0.066095315 -0.000116678915 0.011327177 0.014295864 0.0013942318 0.033724535
-0.019126995 -0.019285696 0.030093221 -0.041596305 0.026058882 -0.030480431 -0.035355132 0.018586822
0.007937567 -0.052699942 0.016938258 -0.018242344 -0.05136381 -0.040366173 -0.009224784 -0.07766342
-0.018986465 0.03834064 0.049994595 0.06560698 0.012816671 0.03112024 0.024928011 0.0025424191
-0.04274273 0.006163129 0.051027935 -0.040425416 0.016783865 0.013074614 -0.015331093 0.008047963
-0.0018200919 -0.027008746 -0.034650605 -0.030808285 -0.039869566 0.041929513 -0.006683806 -0.024435524
0.014300432 -0.014504163 -0.043952018 -0.036190487 0.009021 -0.012476959 0.022592789 -0.027238265
-0.02440126 -0.041699406 -0.009077135 -0.036855776 0.022488933 -0.037131105 -0.04356945 0.07046349
-0.00979256 -0.011723497 -0.03441575 0.0006353708 -0.058100607 0.0108335065 -0.020204572 -0.035876505
0.072234266 -0.016681211 -0.042329337 0.008416292 -0.0047894176 -0.05911108 0.012720829 -0.05598333
00000000: 5aaf b23c c6c2 73bd b472 09bd 3838 1b3c
00000010: de95 873d 084e f43c ec19 193d 5a34 823d
00000020: 52fb 2fbc 956f ca3c 16fe 39bd 80d8 3dbd
00000030: 838d da3b 9017 94bd fc0f 123d 416e c53c
00000040: 3702 dfbc ce80 ddbc 9006 073d 00b6 52bd
00000050: 3fdb b73c 4143 0fbd 28c3 00bd 733f 99bc
00000060: 0b75 3f3d 2b99 66bc 7bee 39bd f9d0 163c
00000070: f41f febc d75d a7bc d853 9d3c 975b bf3b
00000080: e84f 0dbd e345 eab9 10a9 853b 7c25 85bb
00000090: 62d3 1fbd 38be f6bc 1be2 ae3c 4dcb 203c
000000a0: 6361 963d a104 c93c 9fdf 57bd 9a6a 3439
000000b0: 182d e6bc a4aa fa3b 6192 a9bc d2ac ef3b
000000c0: ba8a c5bc f6a3 e9bc 4864 383d 75f4 163c
000000d0: 60e7 a33c 857e 073d 37fa 32bc d043 143c
000000e0: 4042 363c 0366 a7bc d7e3 a63c e007 353c
000000f0: c0d9 bfbc 6bf5 2d3b 617a c5bc 5f96 59bc
00000100: 6253 a7bd 11eb 5fbc f56d 9b3d 1861 993b
00000110: 950d 383d 4110 14bd 1c6a fcbc 5979 f53c
00000120: e2b6 b5bc faf5 fbbc 16ab 173d 108d c1bc
00000130: 7f86 983c 0b4e ecba 9b42 8fbc d5c0 2a3d
00000140: d138 dbbc 03c6 d23c 28b6 bc3c 19cd db3b
00000150: e350 bf3c 02fa 173c cf87 013d 9248 95bc
00000160: 59f2 85bd 8ca1 13bd 178c 23bd 8a5f 0cbc
00000170: 354c 523b ebcd 813c d047 bd3d a2b8 183d
00000180: 4e3c 9bbd fe0b 803d 1534 cbbb 7638 25bd
00000190: a9d4 73bd 7194 4b3d 00b4 3c3d 66c1 bd3d
000001a0: 1966 fc3c 435f 073d 1d2b 23bc 213a 793d
000001b0: 91c2 ba3c a2c9 483d 82e4 1d3b 355b 11bd
000001c0: 078b 63bd aea7 6abc 91c2 443d cd36 22bc
000001d0: 9ca8 6f3c df0c cfbc 9b0b 09bd b65a 03bd
000001e0: 8a20 693d 2a43 3a3d dc02 00bd 86ad 5d3d
000001f0: 93ad 513c 8681 9c3c 6ab9 4dbd c52a 62bd
00000200: f5eb 733c baaf 72bc f641 193d f65a b83c
00000210: 13ca 6cbd 93a8 fe3c 1913 dbbb eb25 223d
00000220: 12dc ebbc 2b13 873c 85e0 0f3b be26 0a3b
00000230: 8eed 03bc ce0e 2c3d 5a48 20bd e237 0a3d
00000240: 8618 27bc 36e4 d4bc ee20 85bc 9c70 f7bc
00000250: 8650 51bd 5885 d13c 86ed 07bd f66b 52bd
00000260: 3077 07bc 969b a63a 7e45 173d 62c8 97ba
00000270: 64f4 093d fb14 bf3c c872 0fbc ca2f 193c
00000280: 89e7 913c d89f 8c3c b77b 09bd 6f55 22bd
00000290: 8a6d 35bd 1ed0 83bc 24ea f8bc 76cf c23c
000002a0: 83a3 7dbd 7006 97bb f787 853c 0804 c43c
000002b0: d744 913c 82a6 52bc c957 3d3d 81c0 cbbb
000002c0: 470f 7a3d 8634 5e3d fb5c 873d 84b1 f4b8
000002d0: a095 393c 3339 6a3c a8be b63a bd22 0a3d
000002e0: 37b0 9cbc 09fd 9dbc 0f86 f63c e360 2abd
000002f0: 7079 d53c 19b2 f9bc 8bd0 10bd 6443 983c
00000300: 920c 023c e5db 57bd 1ac2 8a3c f870 95bc
00000310: dc62 52bd 0057 25bd 8c23 17bc 000e 9fbd
00000320: 8189 9bbc 130b 1d3d 22c7 4c3d f45c 863d
00000330: 04fd 513c e0ef fe3c d435 cc3c b79e 263b
00000340: 0013 2fbd 13f4 c93b ab02 513d 1f95 25bd
00000350: 517e 893c e836 563c 442f 7bbc 9adb 033c
00000360: 2690 eeba 7241 ddbc cbed 0dbd a861 fcbc
00000370: 454e 23bd 48be 2b3d d403 dbbb 022d c8bc
00000380: 5c4c 6a3c dea2 6dbc 0807 34bd 7a3c 14bd
00000390: d1cc 133c 296c 4cbc 8314 b93c c822 dfbc
000003a0: 27e5 c7bc ffcc 2abd 43b8 14bc 15f6 16bd
000003b0: b63a b83c c916 18bd e175 32bd 2a4f 903d
000003c0: f970 20bc e913 40bc 88f7 0cbd 038f 263a
000003d0: e7fa 6dbd 057f 313c 0f84 a5bc 3ef3 12bd
000003e0: 8fef 933d 09a7 88bc 8761 2dbd 7de4 093c
000003f0: 8cf0 9cbb 761e 72bd 066b 503c c74e 65bd

encoder.1.0.bias f4 [64]
0.054699846 -0.01628147 0.031515833 -0.040768858 0.009423245 -0.036505245 -0.016930077 -0.04349061
-0.064718924 0.031426765 -0.022103691 -0.016555676 -0.042214796 -0.025699649 -0.044972245 0.01893989
-0.0025445113 -0.020848949 0.014016394 0.025866799 0.03129109 0.023829468 -0.000947093 0.020980591
-0.015822444 -0.009047507 -0.023518939 0.033317782 -0.06649479 0.001305609 0.031218698 -0.022886565
-0.019343143 -0.035602357 -0.036134686 0.021675926 0.033058546 -0.022852123 -0.0038554093 0.027731696
-0.0015061502 -0.009082333 0.008684443 -0.02655311 -0.021044418 0.07676906 -0.0135189425 -0.056266345
0.019003639 -0.0025853275 0.032349158 -0.023241278 0.018955996 0.0647074 0.044082906 0.00092079496
-0.015455905 0.020600542 -0.008738263 0.04348652 -0.04012768 -0.03761406 -0.02495115 -0.0164041
00000000: f20c 603d b860 85bc bf16 013d 3ffd 26bd
00000010: f463 1a3c 8686 15bd f2b0 8abc 3623 32bd
00000020: 5b8b 84bd 5ab9 003d cd12 b5bc c59f 87bc
00000030: 6ce9 2cbd 1288 d2bc d134 38bd d427 9b3c
00000040: d1c1 26bb 6acb aabc 04a5 653c 9ce6 d33c
00000050: 162b 003d 0436 c33c 5646 78ba 7ddf ab3c
00000060: 129e 81bc ff3b 14bc caaa c0bc 3a78 083d
00000070: 6c2e 88bd f820 ab3a 5bbe ff3c 9b7c bbbc
00000080: 8375 9ebc c7d3 11bd f701 14bd b691 b13c
00000090: 6668 073d 6034 bbbc 09ab 7cbb 952d e33c
000000a0: 046a c5ba 11ce 14bc 3249 0e3c e885 d9bc
000000b0: 5865 acbc 1939 9d3d 8e7e 5dbc 8a77 66bd
000000c0: 85ad 9b3c 996e 29bb 8d80 043d 7e64 bebc
000000d0: 9b49 9b3c 5085 843d 4790 343d 8161 713a
000000e0: c43a 7dbc 78c2 a83c ee2a 0fbc ec1e 323d
000000f0: ec5c 24bd 3311 1abd 5b66 ccbc e461 86bc

encoder.1.1.weight f4 [64]
1.0641603 0.96837705 0.96788 1.0048935 0.94080114 0.97066003 0.976226 0.9900825
0.9803177 0.9906636 0.9972935 0.9987163 0.9980775 0.98996896 1.0921595 0.95967555
1.0353073 0.97271377 0.9984423 0.9851368 1.0355393 0.98956066 1.0032481 1.0123036
1.0595535 0.9778052 0.9896687 0.9859307 1.0397592 0.9919012 0.97535294 1.0851911
0.94461966 0.96402675 0.97092277 1.0363466 1.0063983 0.954225 0.9755606 0.9953376
0.99542713 0.9318251 1.018862 0.98709303 1.147021 0.97693944 0.9361354 1.0013239
1.1093017 1.0078937 1.0520995 0.99000984 0.94530094 0.9277929 0.9600958 1.0127043
1.0209758 1.0344303 0.9831757 1.0330867 0.9621221 1.0178635 0.95849854 1.0186632
00000000: 6836 883f 8fe7 773f fcc6 773f 5aa0 803f
00000010: 58d8 703f 2d7d 783f f2e9 793f 0c76 7d3f
00000020: 1af6 7a3f 219c 7d3f a04e 7f3f dfab 7f3f
00000030: 0282 7f3f 9b6e 7d3f e2cb 8b3f 4cad 753f
00000040: f384 843f c503 793f ea99 7f3f ed31 7c3f
00000050: 8d8c 843f d953 7d3f 6f6a 803f 2a93 813f
00000060: 739f 873f 7151 7a3f ee5a 7d3f f465 7c3f
00000070: d416 853f 3ded 7d3f bbb0 793f 8be7 8a3f
00000080: 98d2 713f 75ca 763f 658e 783f 01a7 843f
00000090: a9d1 803f 1748 743f 57be 793f 72ce 7e3f
000000a0: 50d4 7e3f 178c 6e3f 126a 823f 21b2 7c3f
000000b0: 96d1 923f b418 7a3f 92a6 6f3f 622b 803f
000000c0: 99fd 8d3f a902 813f 32ab 863f 4971 7d3f
000000d0: 3eff 713f d683 6d3f d7c8 753f 4ba0 813f
000000e0: 56af 823f 3668 843f 67b1 7b3f 2f3c 843f
000000f0: a24d 763f 5a49 823f 2960 753f 8e63 823f

encoder.1.1.bias f4 [64]
0.03325643 -0.081322215 -0.054184563 -0.027834935 -0.031612843 -0.07478274 -0.0431671 -0.005988588
-0.0554112 -0.014266524 -0.0360882 -0.004626278 -0.011698152 -0.05209072 -0.019532368 -0.033554103
-0.050775107 -0.09030071 -0.040490635 -0.045843158 -0.00677464 0.0037036121 -0.012302323 -0.016109316
0.005204528 -0.028935324 -0.013542011 -0.018627476 0.054180916 0.034372956 -0.01277461 -0.0118745575
-0.044039425 -0.07659593 -0.048479922 -0.07251286 -0.03639159 -0.047761146 -0.011043356 0.0014853072
0.0059410986 -0.08595018 -0.028905598 -0.010855405 -0.061705083 0.006740508 -0.07287112 -0.023083843
-0.04960409 -0.052103046 -0.07389555 -0.073373556 -0.04875167 -0.06842552 -0.03141261 -0.0037874253
-0.09383086 -0.0067955963 0.0031343177 0.022449005 -0.10091634 -0.033160474 -0.037263177 -0.04068264
00000000: e537 083d 438c a6bd a2f0 5dbd 1706 e4bc
00000010: 787c 01bd b127 99bd fccf 30bd eb3b c4bb
00000020: dbf6 62bd 24be 69bc 38d1 13bd 0898 97bb
00000030: 9ba9 3fbc 145d 55bd 5802 a0bc 0770 09bd
00000040: 8ff9 4fbd 94ef b8bd 82d9 25bd 09c6 3bbd
00000050: cdfd ddbb 4db8 723b af8f 49bc aff7 83bc
00000060: bf8a aa3b c609 edbc 50df 5dbc a698 98bc
00000070: cfec 5d3d a8ca 0c3d 994c 51bc 818d 42bc
00000080: af62 34bd 54de 9cbd e292 46bd 9f81 94bd
00000090: 590f 15bd 31a1 43bd 31ef 34bc a4ae c23a
000000a0: 8cad c23b a606 b0bd 6fcb ecbc deda 31bc
000000b0: 78be 7cbd 7bdf dc3b 743d 95bd 541a bdbc
000000c0: a92d 4bbd 016a 55bd 8d56 97bd e044 96bd
000000d0: d5af 47bd ae22 8cbd 82aa 00bd 7436 78bb
000000e0: 652a c0bd 98ad debb 2069 4d3b fae6 b73c
000000f0: 3aad cebd 47d3 07bd 46a1 18bd d7a2 26bd

encoder.1.1.running_mean f4 [64]
0.38472325 0.114970274 -0.7334584 0.9030261 0.8096618 -0.6534834 0.98664904 -0.9910272
0.17929025 -1.6539159 0.15018475 -1.7934464 -2.3291616 -0.12137128 1.3024243 1.0419508
0.51821226 0.18327004 -0.0659024 -0.20015691 0.17361026 -0.50755286 -0.10637899 -2.0327022
0.629888 -1.5511776 -0.16550738 -1.4126035 -0.18980221 -0.3534954 0.930834 1.7317675
0.44487858 0.42320213 -1.117391 -0.8426704 -0.28931335 0.7789391 0.31161726 -0.49844536
0.75970685 0.9585238 0.77924716 -1.3855042 1.691732 -0.2884427 0.8565408 0.45551527
1.437201 -0.30700284 1.5491983 0.32776195 -0.1828883 1.3797975 -1.255075 -0.27517667
-1.0944018 0.073950805 -0.48410413 1.1155381 0.559052 -1.1633259 0.32684603 0.5153955
00000000: 72fa c43e 8975 eb3d eec3 3bbf b82c 673f
00000010: ff45 4f3f b04a 27bf 0895 7c3f f5b3 7dbf
00000020: dd97 373e 84b3 d3bf 08ca 193e a78f e5bf
00000030: fc10 15c0 8191 f8bd d7b5 a63f a55e 853f
00000040: 8fa9 043f 24ab 3b3e d6f7 86bd eff5 4cbe
00000050: e3c6 313e fcee 01bf 3add d9bd cb17 02c0
00000060: 5740 213f fd8c c6bf c47a 29be 31d0 b4bf
00000070: 835b 42be 59fd b4be 234b 6e3f 8faa dd3f
00000080: 20c7 e33e f3ad d83e ab06 8fbf 3fb9 57bf
00000090: e120 94be 8e68 473f 4c8c 9f3e 3b34 ffbe
000000a0: 267c 423f d161 753f be7c 473f 3458 b1bf
000000b0: ad8a d83f c3ae 93be 4246 5b3f 4c39 e93e
000000c0: 34f6 b73f 7a2f 9dbe 214c c63f 6ad0 a73e
000000d0: 1247 3bbe 349d b03f 4ca6 a0bf f5e3 8cbe
000000e0: 5c15 8cbf 8573 973d 7fdc f7be f4c9 8e3f
000000f0: 081e 0f3f dde7 94bf 5d58 a73e f6f0 033f

encoder.1.1.running_var f4 [64]
0.914596 2.2792993 1.0367174 1.6759611 1.3949702 1.4319621 3.0293846 2.5478647
1.9722712 3.6678627 2.4565203 6.7956643 3.0456223 1.0818056 1.6459856 1.8154331
1.9465042 2.0055013 1.5108945 0.9958721 1.1204648 0.905034 2.022436 4.1873636
0.8152001 3.2336292 1.3982669 2.440898 0.9952749 1.6270969 0.80232817 0.9272808
1.8914793 2.8772168 1.8472793 2.8298867 1.1782738 1.8779211 2.077884 2.3763638
3.534847 2.8668847 2.5073335 2.5943496 1.4069248 1.1202334 1.9945557 1.5136226
1.4431974 2.4720511 0.8230269 2.0138547 1.8439903 3.8564436 3.8588269 1.7850763
1.2431326 1.6794332 1.8803943 0.95908856 2.9731004 3.9368231 2.0801392 1.822381
00000000: f722 6a3f 0ae0 1140 28b3 843f e585 d63f
00000010: 628e b23f 894a b73f 70e1 4140 3710 2340
00000020: 6273 fc3f 43be 6a40 a137 1d40 1576 d940
00000030: 7aeb 4240 9b78 8a3f a8af d23f 1d60 e83f
00000040: 0d27 f93f 225a 0040 fe64 c13f 79f1 7e3f
00000050: 646b 8f3f 4fb0 673f 976f 0140 e2fe 8540
00000060: f4b0 503f c8f3 4e40 69fa b23f ac37 1c40
00000070: 56ca 7e3f b644 d03f 6165 4d3f 4662 6d3f
00000080: fe1b f23f 5224 3840 a673 ec3f dd1c 3540
00000090: add1 963f b85f f03f 0dfc 0440 5816 1840
000000a0: ef3a 6240 0a7b 3740 2778 2040 d309 2640
000000b0: 1d16 b43f cf63 8f3f 9a4d ff3f 63be c13f
000000c0: b1ba b83f 1636 1e40 e4b1 523f ffe2 0040
000000d0: e007 ec3f f9cf 7640 05f7 7640 617d e43f
000000e0: f81e 9f3f abf7 d63f c3b0 f03f d486 753f
000000f0: 4747 3e40 e9f4 7b40 0021 0540 c843 e93f

encoder.2.0.weight f4 [64, 64, 3, 3]
-0.029876856 -0.014415312 0.035804812 -0.058621433 -0.017115423 -0.048249923 -0.029131955 0.00808551
-0.005991513 0.005122643 0.025829311 0.044172022 0.027609773 0.0269348 -0.01662003 0.033888
-0.018599587 -0.027301505 0.01679289 0.039161567 0.0051432494 0.01709278 -0.0002481171 -0.0082352
0.007020854 -0.027694624 -0.03453455 0.0043705055 -0.01126733 -0.0041021006 -0.07899643 -0.030824233
-0.0127404975 0.0033114424 0.021071622 -0.04991759 0.036924373 0.073738486 0.008632819 0.06702579
0.05965809 -0.039434083 0.075044654 0.022603821 -0.042900663 -0.021870999 0.011520054 0.016354484
0.007887267 -0.020862298 -0.015933342 0.0066476725 -0.017313782 -0.031039491 0.025372935 0.034273617
-0.011395276 0.042962983 0.04438735 0.027928205 0.00421713 0.029084906 -0.032729767 -0.0052322056
-0.047563244 -0.06569071 0.026876312 0.022752268 -0.016169442 -0.024330966 -0.050359696 -0.06236438
0.053299263 0.0059872805 -0.044935375 0.043021247 0.0066682906 0.00029435355 0.059869334 0.015722848
0.015414748 -0.03792542 0.006465802 -0.013368975 0.0119586745 0.017195983 -0.0020845355 -0.025371684
0.015494023 0.053772897 -0.0059998906 -0.02113277 0.032593008 -0.032902967 -0.022862202 0.01544409
-0.024949232 -0.030414917 0.011367077 -0.023740064 -0.028378516 -0.020202585 0.030778274 -0.0054001175
-0.021117484 -0.02458899 -0.0050119907 -0.061633788 0.032749355 -0.014641708 -0.025361903 -0.004609745
1.210054e-05 0.036394473 0.028486097 0.04918665 -0.018830944 0.011561031 0.002745062 0.020583553
0.05075649 -0.015083697 0.026599774 0.00074926484 0.036986563 0.027522258 -0.011614836 0.03455381
0.021533556 0.009337491 0.011561407 0.043713126 -0.003661207 0.06069032 -0.015946817 0.0152655095
0.026256941 -0.012343743 0.07040972 0.025096465 0.022027556 0.031732667 0.051952023 0.012505292
-0.026858171 -0.037602045 -0.03526012 -0.012383476 0.028525228 -0.09517975 0.04405219 -0.02149565
-0.0013734289 0.021954153 0.009343656 -0.006344881 0.0041612717 0.009754438 -0.009735432 0.0041597118
0.015965942 0.005982656 -0.0050294325 0.00816459 0.019438323 -0.0023982846 -0.04135428 -0.026295962
-0.0351746 -0.0037120315 -0.047196735 -0.03272341 0.0026122238 -0.03187483 -0.021512648 0.049568944
-0.020637926 -0.028954078 -0.02369974 -0.03248593 -0.0053978027 -0.049024813 -0.031425986 -0.06498188
-0.06552883 -0.023979194 0.014231544 -0.031491864 0.006822357 -0.02049608 0.015032908 -0.026667781
0.009579966 0.013104013 -0.07335501 -0.0067137326 -0.0135563295 -0.00294049 0.039439104 -0.030709624
-0.05189391 0.06753254 -0.027662875 -0.021264931 0.038436323 -0.01849083 -0.035890248 -0.012753678
0.026882706 0.034580544 -0.015875304 0.007995213 -0.0037072601 -0.020160306 0.054818716 0.018493136
0.02032485 0.020321656 0.022791423 -0.0130159 -0.047449246 -0.061888203 -0.0024975566 -0.04705536
0.0027324108 -0.026341451 0.025414566 -0.025786247 0.040049825 0.031864937 -0.00423588 -0.0243697
0.008353901 0.03591167 0.003841175 0.04064456 0.032836672 -0.025229922 0.03413242 0.0218411
-0.013264636 0.014034891 -0.014523781 -0.031903904 -0.03143758 -0.013391491 0.037214402 -0.031979125
-0.058848362 0.056822594 -0.059511892 -0.04675144 -0.014702538 -0.008933994 0.028335342 0.03871856
00000000: 4fc0 f4bc 332e 6cbc 11a8 123d 071d 70bd
00000010: a535 8cbc b6a1 45bd 23a6 eebc 1679 043c
00000020: 7454 c4bb d8db a73b fe97 d33c b9ed 343d
00000030: e42d e23c 5fa6 dc3c bb26 88bc 25ce 0a3d
00000040: 295e 98bc 68a7 dfbc 3e91 893c e167 203d
00000050: b488 a83b 2806 8c3c b715 82b9 efec 06bc
00000060: 310f e63b d6df e2bc 1a74 0dbd 7536 8f3b
00000070: 9b9a 38bc ea6a 86bb e1c8 a1bd 1a83 fcbc
00000080: 85bd 50bc c904 593b 659e ac3c 6376 4cbd
00000090: 033e 173d 3404 973d ab70 0d3c d144 893d
000000a0: 0b5c 743d a285 21bd 03b1 993d a62b b93c
000000b0: 9bb8 2fbd cf2a b3bc 9cbe 3c3c d7f9 853c
000000c0: 9839 013c 69e7 aabc a486 82bc b8d4 d93b
000000d0: a2d5 8dbc 8846 febc e7da cf3c 7e62 0c3d
000000e0: 40b3 3abc f4f9 2f3d 83cf 353d b1c9 e43c
000000f0: da2f 8a3b 7843 ee3c a60f 06bd ec72 abbb
00000100: add1 42bd da88 86bd b62b dc3c f762 ba3c
00000110: c775 84bc bc51 c7bc f845 4ebd cb71 7fbd
00000120: 5450 5a3d f330 c43b 280e 38bd 0c37 303d
00000130: ad81 da3b 7753 9a39 8c39 753d 34cd 803c
00000140: 248e 7c3c af57 1bbd 14df d33b 8c09 5bbc
00000150: 51ee 433c 97de 8c3c b49c 08bb 47d8 cfbc
00000160: a5da 7d3c f840 5c3d bb9a c4bb a21e adbc
00000170: 3f80 053d 43c5 06bd 8349 bbbc 3509 7d3c
00000180: 5562 ccbc b428 f9bc fa3c 3a3c 867a c2bc
00000190: 107a e8bc e47f a5bc b822 fc3c 78f3 b0bb
000001a0: 93fe acbc d96e c9bc a03b a4bb b673 7cbd
000001b0: 3024 063d c6e3 6fbc c4c3 cfbc 580d 97bb
000001c0: 6c03 4b37 5f12 153d ad5b e93c f177 493d
000001d0: 5a43 9abc 7b6a 3d3c 80e6 333b d79e a83c
000001e0: 0ae6 4f3d 9c21 77bc c5e7 d93c 506a 443a
000001f0: 397f 173d 5c76 e13c 274c 3ebc 4c88 0d3d
00000200: 2467 b03c 47fc 183c 0e6c 3d3c 890c 333d
00000210: dcf0 6fbb 6a96 783d e6a2 82bc 301c 7a3c
00000220: cc18 d73c 693d 4abc f932 903d 1a97 cd3c
00000230: 2273 b43c 1dfa 013d a5cb 543d ffe2 4c3c
00000240: ab05 dcbc 9a04 1abd ea6c 10bd 10e4 4abc
00000250: bdad e93c 9aed c2bd 1270 343d a517 b0bc
00000260: a004 b4ba 32d9 b33c 2216 193c b8e8 cfbb
00000270: 475b 883b 14d1 1f3c 5d81 1fbc 314e 883b
00000280: 02cb 823c 280a c43b f0cd a4bb c6c4 053c
00000290: 1e3d 9f3c 8a2c 1dbb 1b63 29bd a16a d7bc
000002a0: 3e13 10bd 8e45 73bb 5d51 41bd fb08 06bd
000002b0: d831 2b3b 2f8f 02bd 4b3b b0bc ce08 4b3d
000002c0: de10 a9bc 1a31 edbc f525 c2bc f70f 05bd
000002d0: 0de0 b0bb 3ece 48bd 89b8 00bd 3815 85bd
000002e0: fb33 86bd 0470 c4bc 6c2b 693c 9dfd 00bd
000002f0: 148e df3b 65e7 a7bc 964c 763c 6476 dabc
00000300: 4af5 1c3c 37b2 563c 273b 96bd dffe dbbb
00000310: 5e1b 5ebc 3cb5 40bb e68a 213d c092 fbbc
00000320: b58e 54bd 804e 8a3d 419d e2bc cb33 aebc
00000330: 686f 1d3d 157a 97bc a701 13bd cdf4 50bc
00000340: 1f39 dc3c 54a4 0d3d ed0c 82bc 5bfe 023c
00000350: 81f5 72bb 3a27 a5bc 9789 603d eb7e 973c
00000360: 4d80 a63c 9a79 a63c 14b5 ba3c a440 55bc
00000370: 245a 42bd 7c7e 7dbd 0cae 23bb 1fbd 40bd
00000380: 3f12 333b 07ca d7bc 3532 d03c ae3d d3bc
00000390: 490b 243d cf84 023d 23cd 8abb f7a2 c7bc
000003a0: cdde 083c 1e18 133d 39bc 7b3b e97a 263d
000003b0: bf7f 063d fbae cebc 70ce 0b3d 1bec b23c
000003c0: ea53 59bc 99f2 653c 27f5 6dbc abad 02bd
000003d0: b1c4 00bd fc67 5bbc 216e 183d 8bfc 02bd
000003e0: fb0a 71bd cfbe 683d bec2 73bd 707e 3fbd
000003f0: eae2 70bc e35f 12bc 851f e83c 5a97 1e3d

encoder.2.0.bias f4 [64]
-0.03809624 0.008355444 -0.036052953 -0.04723168 -0.0062236916 -0.019640362 0.03773935 -0.022295455
-0.0018387991 0.024249088 0.018550083 -0.011301115 -0.004747276 -0.0050764927 0.024643077 -0.013456063
0.00044988928 0.039355665 0.036548555 -0.050150756 -0.042636264 -0.00897851 -0.008705498 0.016498072
-0.044044923 0.00913894 -0.028671144 0.04105209 -0.03096512 -0.027240783 -0.01578429 0.018134672
0.018883873 0.004864657 -0.04134926 0.0019962788 0.0069747893 0.038676046 0.008806682 -0.02106319
0.013478061 -0.053096056 0.02989509 -0.049246944 -0.036796715 -0.026249994 0.06377956 0.011195024
-0.034139674 0.029721227 0.014617087 -0.0062104966 0.023152547 -0.033702955 0.0065692845 -0.046873942
-0.019467032 -0.04726933 -0.046226267 0.023049023 0.037686203 -0.03126719 -0.016530244 -0.027762927
00000000: ce0a 1cbd 46e5 083c 43ac 13bd 0276 41bd
00000010: 1cf0 cbbb d3e4 a0bc 9494 1a3d f5a4 b6bc
00000020: dc03 f1ba 06a6 c63c 58f6 973c 5028 39bc
00000030: 0a8f 9bbb b558 a6bb 47e0 c93c d276 5cbc
00000040: 1edf eb39 6833 213d f0b3 153d e16a 4dbd
00000050: 5da3 2ebd 9a1a 13bc 81a1 0ebc f726 873c
00000060: 7368 34bd 7ebb 153c bfdf eabc 3c26 283d
00000070: 90aa fdbc 1028 dfbc 0e4e 81bc 2a8f 943c
00000080: 5ab2 9a3c b367 9f3b d75d 29bd 00d4 023b
00000090: c68c e43b c66a 1e3d e749 103c b68c acbc
000000a0: 16d3 5c3c 407b 59bd 8ce6 f43c 2ab7 49bd
000000b0: 27b8 16bd 3a0a d7bc dc9e 823d 556b 373c
000000c0: 0bd6 0bbd ee79 f33c 827c 6f3c 6c81 cbbb
000000d0: 69aa bd3c 1c0c 0abd 2743 d73b e4fe 3fbd
000000e0: 5379 9fbc 7c9d 41bd c157 3dbd 4ed1 bc3c
000000f0: d95c 1a3d 0612 00bd 6f6a 87bc 146f e3bc

encoder.2.1.weight f4 [64]
1.0172094 0.99386203 0.99358886 1.032593 1.032344 1.0068632 1.016471 1.0128012
0.9975946 0.9896624 1.0005049 0.9990755 0.9658782 0.98576224 0.9534475 0.9603632
0.9627371 0.9627627 1.0328207 1.0267417 0.92849725 0.9803884 1.0136473 0.9804157
1.058223 0.9787466 1.0375348 0.9904733 0.9769376 1.0105454 0.97925586 1.0837685
0.98369807 0.984746 0.97567266 0.9909545 0.98035604 1.0084014 1.023971 1.0041472
1.0237428 0.9244818 1.0085423 1.0174223 0.95044774 0.9344901 1.0472167 0.9873608
0.9314377 1.0567775 1.048097 1.0358157 0.98100424 1.0523579 0.99703133 1.0441738
1.029874 1.0108317 0.9660093 1.0013132 0.9809255 0.98666143 1.0368158 1.0249004
00000000: eb33 823f be6d 7e3f d75b 7e3f 022c 843f
00000010: d923 843f e5e0 803f b91b 823f 78a3 813f
00000020: 5c62 7f3f 845a 7d3f 8b10 803f 69c3 7f3f
00000030: cb43 773f ea5a 7c3f 2315 743f 5dda 753f
00000040: f075 763f 9e77 763f 7833 843f 466c 833f
00000050: ffb1 6d3f bcfa 7a3f 32bf 813f 86fc 7a3f
00000060: da73 873f 238f 7a3f f1cd 843f a88f 7d3f
00000070: 9518 7a3f 8d59 813f 83b0 7a3f edb8 8a3f
00000080: a3d3 7b3f 5018 7c3f afc5 793f 32af 7d3f
00000090: 9df8 7a3f 4c13 813f 7b11 833f e587 803f
000000a0: 010a 833f d7aa 6c3f ea17 813f e53a 823f
000000b0: 8b50 733f be3a 6f3f 320b 863f adc3 7c3f
000000c0: b372 6e3f 7c44 873f 0b28 863f 9c95 843f
000000d0: 1823 7b3f aab3 863f 723d 7f3f 7da7 853f
000000e0: e9d2 833f ef62 813f 634c 773f 082b 803f
000000f0: ef1d 7b3f d895 7c3f 61b6 843f f02f 833f

encoder.2.1.bias f4 [64]
-0.06508328 -0.0983083 -0.041742083 -0.040879846 -0.0069399583 -0.04041755 0.0045896634 0.020256693
-0.10062907 -0.07820453 -0.037223775 0.0013313256 -0.06766827 -0.012432083 0.041559093 -0.10154262
-0.07833673 -0.06153691 0.015476693 -0.039412405 -0.078584425 -0.013969632 -0.041500356 -0.0411346
-0.004366045 -0.101550944 -0.043100663 -0.012800921 -0.077616856 -0.057797816 -0.0666575 0.009027273
-0.023670258 -0.08215875 -0.009670608 -0.051779445 -0.034077138 -0.05131312 -0.017302468 -0.05285063
-0.10200547 -0.10170732 -0.0034482894 -0.073833585 -0.07242462 0.0002508356 -0.05132493 0.00982935
-0.078929484 -0.00454324 -0.033154503 -0.068358585 -0.0093597565 -0.048567697 0.0020233402 0.010100247
-0.027787961 -0.042259485 -0.0837564 -0.00033090598 -0.06940765 -0.047622103 -0.019831918 -0.07896819
00000000: 624a 85bd dd55 c9bd bff9 2abd a071 27bd
00000010: 9768 e3bb df8c 25bd e364 963b 5df1 a53c
00000020: 9d16 cebd b229 a0bd f577 18bd e07f ae3a
00000030: a995 8abd efaf 4bbc de39 2a3d 94f5 cfbd
00000040: 026f a0bd 200e 7cbd f591 7d3c e76e 21bd
00000050: dff0 a0bd e2e0 64bc 47fc 29bd c17c 28bd
00000060: 0a11 8fbb f1f9 cfbd 528a 30bd f4ba 51bc
00000070: 96f5 9ebd 67bd 6cbd ba83 88bd 21e7 133c
00000080: 21e8 c1bc d942 a8bd 7871 1ebc af16 54bd
00000090: 7894 0bbd b52d 52bd e8bd 8dbc e779 58bd
000000a0: 3ee8 d0bd ed4b d0bd b2fc 61bb 1036 97bd
000000b0: 5c53 94bd 9682 8339 173a 52bd 480b 213c
000000c0: c8a5 a1bd 76df 94bb 04cd 07bd 96ff 8bbd
000000d0: aa59 19bc ecee 46bd 049a 043b 827b 253c
000000e0: 94a3 e3bc 4818 2dbd 7a88 abbd 737d adb9
000000f0: 9925 8ebd 650f 43bd 8c76 a2bc 13ba a1bd

encoder.2.1.running_mean f4 [64]
-0.2391254 -4.612523 -1.9496912 -0.2706728 0.8693089 -3.2622929 -1.4115856 1.4688063
-0.4096713 0.6036308 0.6679131 1.7877109 0.16995981 0.5567816 -0.2512303 -0.24216448
1.3742356 1.182679 -2.5937464 -2.3222885 1.412185 -0.5461889 -0.39375368 0.39426556
0.3477017 -0.37930202 -2.331137 1.1608403 -2.058562 0.32010505 1.9823804 0.6557157
-0.2805547 0.59747136 0.34461966 0.80205196 0.21598114 -0.122271165 0.022263976 0.044663552
-1.4949567 2.724399 1.1753253 -0.48829302 0.63873714 0.24618591 -0.1183348 1.0869981
-2.224013 0.4459864 0.32148364 0.0793981 0.36742863 0.42330623 0.36496198 -0.578489
-0.04760462 -1.1164445 1.013498 0.99211705 -1.1988873 -4.150381 -0.27355057 0.6008079
00000000: 4add 74be ca99 93c0 7b8f f9bf a095 8abe
00000010: 078b 5e3f 68c9 50c0 d6ae b4bf d801 bc3f
00000020: 70c0 d1be 8c87 1a3f 5afc 2a3f b6d3 e43f
00000030: f209 2e3e 3d89 0e3f 42a1 80be f7f9 77be
00000040: f4e6 af3f 0762 973f f1ff 25c0 60a0 14c0
00000050: 7ac2 b43f 09d3 0bbf 159a c9be 2ddd c93e
00000060: f505 b23e e033 c2be 5931 15c0 6a96 943f
00000070: 7bbf 03c0 cfe4 a33e a4be fd3f fcdc 273f
00000080: dea4 8fbe e2f3 183f fd71 b03e 4753 4d3f
00000090: 292a 5d3e 4e69 fabd f162 b63c 21f1 363d
000000a0: be5a bfbf 8e5c 2e40 0f71 963f 8b01 fabe
000000b0: 4784 233f 2918 7c3e 8459 f2bd c122 8b3f
000000c0: 3b56 0ec0 5458 e43e 8199 a43e 799b a23d
000000d0: 9b1f bc3e 98bb d83e 4cdc ba3e db17 14bf
000000e0: 10fd 42bd a7e7 8ebf 4dba 813f 62fb 7d3f
000000f0: 2475 99bf eccf 84c0 d20e 8cbe 8cce 193f

encoder.2.1.running_var f4 [64]
3.4944172 7.728015 5.3744316 2.3989403 3.322629 4.9786367 2.532727 2.7988224
3.9814975 2.1270964 3.4731696 6.3692646 2.3549688 2.7065728 2.3767755 2.7694337
4.812613 2.9097147 4.114215 5.004667 3.6654208 2.5965998 2.675345 3.7048943
3.033103 3.1243765 5.352923 2.9440112 4.216771 6.28166 4.3357553 3.2895577
3.6142921 3.3175697 3.43964 3.5872037 2.9254391 2.5257573 4.783206 1.9332448
5.2867894 5.5627084 3.5614927 4.716639 4.1302304 1.1988257 2.475735 3.5705814
4.453027 1.6781676 4.341241 4.0557384 3.2351427 4.199998 1.590838 2.904251
1.4526964 4.8608203 2.527107 3.700307 3.1913767 6.729143 2.7148561 3.3075502
00000000: 88a4 5f40 e64b f740 58fb ab40 3d88 1940
00000010: f4a5 5440 fe50 9f40 3318 2240 e81f 3340
00000020: dbd0 7e40 5922 0840 6948 5e40 04d1 cb40
00000030: cfb7 1640 7d38 2d40 171d 1840 673e 3140
00000040: ed00 9a40 c438 3a40 a6a7 8340 3b26 a040
00000050: 4196 6a40 b12e 2640 da38 2b40 fd1c 6d40
00000060: 5c1e 4240 c9f5 4740 254b ab40 ae6a 3c40
00000070: caef 8640 5c03 c940 82be 8a40 1d88 5240
00000080: 9050 6740 1053 5440 1023 5c40 bf94 6540
00000090: 653a 3b40 02a6 2140 0610 9940 9174 f73f
000000a0: 612d a940 b501 b240 7fef 6340 b5ee 9640
000000b0: d92a 8440 1f73 993f 7172 1e40 6884 6440
000000c0: 327f 8e40 32ce d63f 72eb 8a40 9cc8 8140
000000d0: 940c 4f40 6266 8640 94a0 cb3f 40df 3940
000000e0: f5f1 b93f d78b 9b40 1fbc 2140 d4d1 6c40
000000f0: 843f 4c40 2455 d740 34c0 2d40 e7ae 5340

encoder.3.0.weight f4 [64, 64, 3, 3]
0.08316848 -0.006348339 -0.040537786 0.044699896 0.027672863 -0.038636327 -0.045229904 -0.047655758
0.042290814 -0.037465136 -0.04354509 -0.0033720678 0.024465287 -0.041891918 -0.011131948 0.031967297
0.007746374 -0.044737406 0.012246509 -0.05206737 0.011472816 0.044773858 -0.004494218 -0.002150973
0.04132254 0.007616716 0.010554536 0.0032980384 -0.019589934 -0.06054187 0.028828185 -0.07089737
-0.091573626 -0.020480279 0.008624352 -0.07587943 0.018790264 0.04637151 -0.024283588 0.012984902
0.0064232796 0.07651835 -0.016895285 -0.042687513 0.10038951 -0.028000092 -0.035582136 -0.015539118
0.013853984 0.005191318 -0.064500526 0.053843495 -0.0015301865 -0.004971364 -0.040321324 0.005249634
0.0020007272 0.033638824 -0.02426362 -0.011958161 -0.00041741878 -0.009966586 0.012038699 0.055813946
-0.013938803 0.021755096 -0.010639637 0.04084613 -0.05546479 -0.030986965 0.016340198 0.03457742
0.03720405 -0.018649612 0.011097536 0.020456335 -0.016213192 -0.06699296 0.059238154 -0.00245854
-0.027824046 0.022971323 -0.016672028 0.01142333 -0.00021525488 -0.025746733 -0.04438085 0.023618147
0.02107465 -0.0580707 0.015243381 0.042127904 -0.032432463 0.028164703 -0.038230173 0.02181589
-0.049644116 -0.015082752 0.01501341 0.011810938 0.021180443 -0.05099044 -0.04248238 0.009421307
-0.07239385 -0.06251513 0.07400751 0.040101442 0.04978257 -0.022874167 -0.04132567 0.033397455
0.019482305 -0.040634528 -0.009580091 -0.041280612 0.041682813 0.04502269 -0.0025834208 -0.00014010802
0.056173928 0.016716754 -0.046738137 0.027513081 -0.015898803 -0.018226221 -0.018878546 0.020340499
-0.039133564 0.017818885 0.014798081 -0.07373674 0.06026541 -0.031280804 0.047268014 -0.010142085
0.060611058 -0.008842982 -0.040530227 0.022032661 -0.03990876 -0.022648145 0.037990097 0.03849135
0.022471935 0.016997075 -0.01155699 0.00990985 0.01747197 -0.03628441 -0.04131596 0.0001590192
0.0013339696 0.058256447 0.005184144 -0.03464677 0.021393012 0.048758317 -0.021900468 0.029580329
0.041456833 -0.011800193 -0.04641768 0.021536987 -0.030448256 -0.012799834 -0.037060544 -0.01069475
0.022405164 0.011571264 -0.027090413 0.036948815 -0.044590794 -0.038184892 0.0037040885 -0.024967466
-0.028239746 0.040957015 0.016444383 -0.069038995 0.0072557116 -0.004290413 -0.05196424 0.02248903
0.078140244 -0.00992235 -0.03326658 0.0044962475 0.015857203 -0.020797972 0.05107804 0.016154528
0.09423279 0.035120193 0.01364181 0.051512092 0.013382598 0.038035076 0.013610933 -0.05706618
-0.052363127 0.023218714 0.016055841 -0.041287046 0.029696254 -0.005493766 -0.030342482 0.06588652
0.029208645 -0.036122162 0.033055454 0.029022152 -0.04748733 -0.051637087 0.051147263 -0.009461997
0.020394636 0.032999612 0.014254364 -0.01014332 0.027839202 -0.026156329 0.06819959 0.014759605
-0.017264886 -0.067232594 -0.020065581 -0.033027124 -0.07283395 0.06573757 -0.010926791 -0.0756325
-0.042975422 -0.025296882 0.016649136 0.03297853 0.017244382 -0.014495671 -0.018791655 0.0049287616
0.009758784 -0.029502824 0.022257917 -0.060209427 -0.0034132868 -0.04521096 -0.027242009 -0.024029994
-0.013545738 0.0034068152 -0.08106924 -0.013719414 0.032899465 0.016306603 -0.027782552 -0.01716704
00000000: 3c54 aa3d ba05 d0bb f30a 26bd 3d17 373d
00000010: 33b2 e23c 2041 1ebd fe42 39bd af32 43bd
00000020: 2239 2d3d 0b75 19bd 565c 32bd e9fd 5cbb
00000030: 6d6b c83c dc96 2bbd c662 36bc 24f0 023d
00000040: 4bd5 fd3b 923e 37bd 95a5 483c 9844 55bd
00000050: 7af8 3b3c cb64 373d 3c44 93bb 57f7 0cbb
00000060: d341 293d a595 f93b efec 2c3c e723 583b
00000070: 127b a0bc c0fa 77bd 1629 ec3c a432 91bd
00000080: f48a bbbd 42c6 a7bc 274d 0d3c ad66 9bbd
00000090: 0aee 993c 0df0 3d3d 60ee c6bc a0be 543c
000000a0: 607a d23b a7b5 9c3d fb67 8abc 1ad9 2ebd
000000b0: 0499 cd3d 7360 e5bc 93be 11bd c997 7ebc
000000c0: d2fb 623c ef1b aa3b da18 84bd ff8a 5c3d
000000d0: 8a90 c8ba d3e6 a2bb f927 25bd 1f05 ac3b
000000e0: a21e 033b ddc8 093d 80c4 c6bc 2aec 43bc
000000f0: 00d9 dab9 e44a 23bc f73d 453c 2a9d 643d
00000100: 945f 64bc be37 b23c df51 2ebc 464e 273d
00000110: 0c2f 63bd 60d8 fdbc e1db 853c 0ea1 0d3d
00000120: 4663 183d 12c7 98bc 71d2 353c 0b94 a73c
00000130: 87d1 84bc 9b33 89bd b5a3 723d 751f 21bb
00000140: 41ef e3bc 5b2e bc3c c793 88bc eb28 3b3c
00000150: 0bb6 61b9 d0ea d2bc b2c8 35bd d87a c13c
00000160: bfa4 ac3c 8bdb 6dbd 60bf 793c 4f8e 2c3d
00000170: e7d7 04bd aab9 e63c 3e97 1cbd 3db7 b23c
00000180: a157 4bbd a61d 77bc cefa 753c aa82 413c
00000190: 9c82 ad3c 5adb 50bd 0102 2ebd d35b 1a3c
000001a0: 3a43 94bd ef07 80bd 4091 973d 6941 243d
000001b0: cfe8 4b3d 9b62 bbbc 1b45 29bd c5cb 083d
000001c0: 5b99 9f3c 6470 26bd d0f5 1cbc dc15 29bd
000001d0: 99bb 2a3d b669 383d 9c4e 29bb f6e9 12b9
000001e0: a216 663d 93f1 883c 7d70 3fbd 1d63 e13c
000001f0: 353e 82bc 284f 95bc 2ea7 9abc 1ea1 a63c
00000200: 844a 20bd e9f8 913c a673 723c 4a03 97bd
00000210: ddd8 763d 4d20 00bd 1b9c 413d fd2a 26bc
00000220: 4d43 783d 28e2 10bc 0603 26bd d77d b43c
00000230: 5e77 23bd 9a88 b9bc 819b 1b3d 1ba9 1d3d
00000240: 1017 b83c 733d 8b3c 8859 3dbc ec5c 223c
00000250: 6021 8f3c f69e 14bd ed3a 29bd 64be 2639
00000260: 98d8 ae3a 509e 6e3d c0df a93b c6e9 0dbd
00000270: 6640 af3c cdb6 473d 9c68 b3bc 7252 f23c
00000280: a4ce 293d 9955 41bc 7720 3ebd 566e b03c
00000290: 9f6e f9bc 65b6 51bc cccc 17bd 0839 2fbc
000002a0: 098b b73c 6695 3d3c b7ec ddbc a457 173d
000002b0: d6a4 36bd c367 1cbd 4bc0 723b 9288 ccbc
000002c0: 0a57 e7bc 8bc2 273d 5fb6 863c 5164 8dbd
000002d0: 52c1 ed3b 9896 8cbb 74d8 54bd ea3a b83c
000002e0: fe07 a03d 5a91 22bc 8a42 08bd 4255 933b
000002f0: f7e6 813c 8260 aabc 3537 513d 8056 843c
00000300: 1ffd c03d 31da 0f3d e681 5f3c 58fe 523d
00000310: af42 5b3c abca 1b3d 6400 5f3c 3abe 69bd
00000320: b87a 56bd 2c35 be3c 8a87 833c 9b1c 29bd
00000330: 8f45 f33c 0d05 b4bb cc90 f8bc 83ef 863d
00000340: f846 ef3c d5f4 13bd 2865 073d ddbf ed3c
00000350: 1382 42bd 6981 53bd cb7f 513d 7e06 1bbc
00000360: a712 a73c 9a2a 073d 238b 693c 2b30 26bc
00000370: 0a0f e43c cc45 d6bc 3aac 8b3d 45d2 713c
00000380: 176f 8dbc 3eb1 89bd 9360 a4bc 7347 07bd
00000390: f729 95bd 6ba1 863d 4806 33bc 36e5 9abd
000003a0: ff06 30bd 683b cfbc c563 883c 7f14 073d
000003b0: 1744 8d3c 407f 6dbc f5f0 99bc 7381 a13b
000003c0: 4fe3 1f3c e8af f1bc 3c56 b63c 299e 76bd
000003d0: 73b1 5fbb 212f 39bd a22a dfbc 8dda c4bc
000003e0: f1ee 5dbc e044 5f3b a107 a6bd 65c7 60bc
000003f0: 97c1 063d 6d95 853c 3c98 e3bc e4a1 8cbc

encoder.3.0.bias f4 [64]
-0.00011873736 -0.0061698155 0.020570235 0.024028298 0.0066458466 -0.01544487 0.041365642 0.003970765
0.022752283 -0.037867624 -0.030271988 -0.030346068 -0.035397667 0.006613567 -0.023003824 -0.017000543
0.005333765 -0.01955251 0.004257412 0.0008041035 0.060481798 0.0048003555 0.023407234 -0.06063542
-0.015236744 0.044004615 0.016609877 -0.010297281 0.023327775 0.01407494 0.026319662 0.007420387
-0.0066336 -0.009246952 -0.013113354 0.00341692 -0.019964414 -0.022888083 -0.024932776 0.002861109
-0.0138760945 -0.009348259 -0.028519014 0.041725766 -0.028361667 0.03610279 0.019879766 0.0029333103
-0.012525168 0.028186422 -0.058734316 0.042402804 0.0036823147 -0.052753914 -0.035938956 -0.047888197
0.0020705848 0.007213184 0.0011172271 -0.015151302 -0.0048729433 0.017565621 0.028375536 0.00203476
00000000: a202 f9b8 2a2c cabb e982 a83c fed6 c43c
00000010: 67c5 d93b 7b0c 7dbc 056f 293d 311d 823b
00000020: ff62 ba3c 151b 1bbd f6fc f7bc 5198 f8bc
00000030: 25fd 10bd 9fb6 d83b 8472 bcbc b944 8bbc
00000040: ddc6 ae3b 962c a0bc c381 8b3b 79ca 523a
00000050: c3bb 773d 4d4c 9d3b 87c0 bf3c d95c 78bd
00000060: 89a3 79bc 2f3e 343d 7011 883c edb5 28bc
00000070: e419 bf3c 949a 663c 559c d73c b826 f33b
00000080: ac5e d9bb 8780 17bc 65d9 56bc 68ee 5f3b
00000090: 698c a3bc ca7f bbbc d23f ccbc 7281 3b3b
000000a0: 8f58 63bc 7129 19bc b5a0 e9bc a3e8 2a3d
000000b0: ba56 e8bc 85e0 133d e4da a23c c83c 403b
000000c0: 5d36 4dbc 36e7 e63c 6593 70bd 90ae 2d3d
000000d0: fd52 713b 7d14 58bd ba34 13bd 6a26 44bd
000000e0: a6b2 073b 935c ec3b ec6f 923a 2b3d 78bc
000000f0: 36ad 9fbb c7e5 8f3c d073 e83c 9c59 053b
