output/last_model.pth (torch, 458978 bytes, 24 tensors)

encoder.0.0.weight f4 [64, 1, 3, 3]
000000 ff 49 e5 3c a1 a0 80 be 73 c3 2a 3e b1 2a 89 3d
       0.027989386 -0.2512255 0.1667612 0.06697596
000010 0c 90 59 be 2c b7 8e bd a7 06 cb bd 5d 4b e2 bc
       -0.21246356 -0.06968531 -0.09913378 -0.027623827
000020 33 46 6c bd 0c aa c8 3d 2d 7c 6d 3e fd 18 80 bd
       -0.057684135 0.09798059 0.231919 -0.06254766
000030 80 8f 4c be 50 f1 7d be 9d a2 fc bd a3 62 0a be
       -0.19976616 -0.24799085 -0.123357035 -0.1351419
000040 9a a9 e6 3d 53 ff 86 be 3a da a6 3e 5d 17 96 be
       0.11262818 -0.26366672 0.3258837 -0.293147
000050 16 67 76 3e ce 2a 3f bd 84 36 3f 3e d4 18 f9 3d
       0.24062762 -0.04667168 0.1867314 0.12162939
000060 08 05 d9 3c de 5b de 3d 74 81 53 3e 6a 22 b3 3d
       0.026491657 0.10857366 0.20654851 0.08746798
000070 b1 de 69 3e 77 54 fa bd 74 1d 56 3e b4 a8 6b 3d
       0.22838856 -0.12223142 0.20909673 0.057533935
000080 43 19 15 3e 22 fd a1 3d f1 a0 1f 3e e0 63 ae 3e
       0.14560418 0.079096094 0.15588738 0.34060574
000090 92 5a 2e be 04 25 4b be 3f 55 aa bd 00 85 9f be
       -0.17026737 -0.19838339 -0.08317041 -0.31156158
0000a0 47 d6 06 3e 87 c4 40 be 22 da 4b be 36 8b 87 3e
       0.13167678 -0.18824969 -0.1990743 0.26473397
0000b0 59 b7 21 3e 6e 7f d9 bc 78 f1 18 be 81 14 74 bd
       0.15792598 -0.026550021 -0.14935863 -0.059589867
0000c0 c3 28 f1 3d db ed b4 be 3a 3c 86 be 2e 2e f5 3d
       0.11775353 -0.3533772 -0.26217824 0.11971699
0000d0 18 46 c1 3e 00 6d 80 bd f3 10 9b be e0 2f 52 ba
       0.3774879 -0.0627079 -0.3028637 -0.0008017998
0000e0 3e b2 36 be 3a e7 b5 bc 31 c2 2b 3e 8a ca c3 3d
       -0.17841431 -0.022204984 0.16773297 0.09560116
0000f0 7d ec 2e bd 64 0c 0c 3d d4 39 bf 3b 41 7c a6 bd
       -0.042706 0.034191504 0.005835751 -0.08129168
000100 a9 c8 51 bd 4b 9b 37 3d f9 21 aa bd 7f d8 39 be
       -0.051216755 0.044825833 -0.08307261 -0.18148993
000110 d2 29 17 3e 27 75 34 3e 03 eb 17 be 65 61 52 be
       0.14762047 0.17622815 -0.14835744 -0.20544966
000120 c8 07 10 3e 27 5d 26 be ad af 8e bd 5a d3 87 3e
       0.14065468 -0.16246472 -0.06967101 0.26528436
000130 33 f0 ab 3d 5b 3c 5b bc aa 1f eb 3d e2 da 4e bd
       0.08395424 -0.013381089 0.11480649 -0.05050171
000140 b8 e1 ba 3e f6 d7 84 be 0b 49 3e be b9 3a d7 bd
       0.36500335 -0.25946015 -0.18582551 -0.10509247
000150 1d 09 2f be 07 d9 1b be 19 ca 68 3e a9 ea 4c 3e
       -0.1709332 -0.15219508 0.22733344 0.20011391
000160 aa 0e 10 3d da 1b d5 3d 22 f9 a0 bd 49 38 f0 39
       0.035170235 0.10405703 -0.07860018 0.00045818303
000170 bf 28 03 3e a2 b8 10 be 9e 71 b8 be f7 01 b4 be
       0.12808512 -0.14132932 -0.36024183 -0.3515775
000180 fd e5 08 be 18 5b 93 3e 30 d4 37 3d ef 99 5e 3e
       -0.13368984 0.28780437 0.044880092 0.21738409
000190 db e1 2b be aa a0 6b be 3c f6 93 be 61 83 06 be
       -0.16785376 -0.23010507 -0.288988 -0.13136055
0001a0 10 72 58 bc 5f 45 92 be 80 27 92 3e 31 66 c9 bc
       -0.013210788 -0.2856855 0.2854576 -0.024584861
0001b0 82 c4 29 be f7 01 3b 3e f3 0c 22 bd a4 99 44 3e
       -0.16578868 0.18262468 -0.03956313 0.19199234
0001c0 e3 ef 92 3d 5e 56 60 bd 6f e0 be bd a6 71 96 be
       0.07174661 -0.054769866 -0.09320151 -0.29383582
0001d0 23 a9 32 be 76 0f 8d bd c2 44 39 be 44 9e bf bc
       -0.17447333 -0.068877146 -0.18092635 -0.023390897
0001e0 8a 54 bc 3d 83 fa 5f be 12 59 7b 3e be d8 e0 bd
       0.09195812 -0.21872906 0.24545696 -0.1097884
0001f0 4f d9 6f bd 0e 96 ae bd 2d c3 a2 be 82 75 78 be
       -0.05855685 -0.085247144 -0.31789532 -0.24263576
000200 c0 2d 92 3d f8 11 53 3d 49 69 8c be 70 6c 4b be
       0.07137632 0.05153081 -0.27424076 -0.19865584
000210 6e 20 b3 be 7a 70 d4 3d 34 f2 6a 3e 5f d9 8b 3d
       -0.3498568 0.10373016 0.22943956 0.068285696
000220 c3 ec a1 be 1b 14 ef 3d a1 5d 4f 3e ca e2 ca bd
       -0.31625947 0.11673757 0.2025056 -0.09906538
000230 9e ec 08 be 1f 19 45 3d dc 72 bf 3d 3b dd de bd
       -0.13371512 0.04811966 0.093480796 -0.1088204
000240 b0 61 c7 bd 1e ff 13 be 4f 40 21 3d 1a e2 e5 bc
       -0.09735429 -0.14452788 0.03936797 -0.028061915
000250 fe 47 c9 3e d4 78 00 bd d1 71 35 bd 8b 09 aa be
       0.39312738 -0.03136523 -0.044297997 -0.33210406
000260 d7 63 57 be 56 a7 66 bd e1 b4 41 3e d3 30 3e bd
       -0.2103418 -0.056311928 0.18916656 -0.04643328
000270 f5 b3 c8 be e4 04 31 3e 91 3f 49 3e 0a ef a2 be
       -0.39199796 0.17287022 0.19653155 -0.31822997
000280 59 7a 05 be 9b 1a ce ba ec 39 de bd cf 92 86 be
       -0.13034953 -0.0015724482 -0.108508915 -0.2628388
000290 ec dd 20 3e 94 91 2e be d6 f3 1f be f6 0b 96 be
       0.15709656 -0.17047721 -0.1562036 -0.29306
0002a0 ee 11 8d 3e d8 08 cd bb 7f aa ae 3d 89 ff 6c be
       0.27552742 -0.006257158 0.08528613 -0.23144354
0002b0 a4 92 97 3e 51 96 9a bc db 02 57 be 33 14 12 bc
       0.29604065 -0.018870505 -0.20997183 -0.008915949
0002c0 1b 4a 09 be cf 62 15 bc bf 4b 74 3e 8f 6e 1e be
       -0.13407175 -0.009117796 0.2385702 -0.15471862
0002d0 45 5e 45 3e 8c 06 f3 3d 10 21 14 be 82 44 be 3d
       0.19274242 0.11866483 -0.14465737 0.092904106
0002e0 7f 6d 01 be 25 c9 36 be f7 90 88 be 74 20 2e 3e
       -0.12639426 -0.17850168 -0.266731 0.17004567
0002f0 ae 26 2a 3e 34 12 22 3c 1b 52 18 3e 7b 15 8e 3e
       0.16616318 0.009892035 0.14875071 0.27750763
000300 74 68 92 3e 60 d8 bf be 2c 44 aa 3c a5 13 f9 3c
       0.28595316 -0.3746977 0.02078446 0.030404875
000310 3a 05 5e 3e d2 f9 03 3d 60 54 55 3d d7 d8 6e be
       0.21681681 0.03222067 0.05208242 -0.23324905
000320 40 f0 ab 3d 0f f5 a7 3e 9b f9 bc bd 64 ff b9 be
       0.083954334 0.32804152 -0.09227296 -0.3632766
000330 30 13 94 be 4d bb 07 be f3 3c ef ba 43 b4 6c bb
       -0.2892089 -0.13255043 -0.0018252417 -0.0036118187
000340 e0 4f 14 3c ab 52 91 3e 36 07 0d be a4 fb 27 3e
       0.009052247 0.28383383 -0.13772282 0.16404587
000350 19 26 36 be 38 4f 87 3e 85 f4 89 3d e0 c6 b4 bc
       -0.1778797 0.26427627 0.067360915 -0.022067487
000360 d9 36 0f 3e cd 03 e1 3d e6 e2 b1 3d ab 33 2f be
       0.13985766 0.10987053 0.086858556 -0.17109554
000370 b1 e9 f1 3c 88 37 0a 3d 03 c6 6d be ad 6a b6 bd
       0.029530378 0.033744365 -0.23220067 -0.089070655
000380 33 03 2b 3d 6e e8 3d bd 94 9d 12 3e 45 d4 0b be
       0.041751098 -0.04636424 0.14317924 -0.13655193
000390 10 64 91 be cf 35 b7 be b3 7a 92 be 28 a6 9d bb
       -0.28396654 -0.3578324 -0.28609237 -0.004811067
0003a0 82 fd 22 3e 0d 0d 5e 3e 33 d4 12 3e 9a 8a c4 3c
       0.15917018 0.21684666 0.1433876 0.023991872
0003b0 a7 72 b5 3d 01 5d 9b bd 8f 8c 86 3e 23 e6 84 bd
       0.08859759 -0.075860985 0.26279113 -0.064892076
0003c0 5a 91 64 be fc e5 98 be 49 7f a3 be c5 8f 34 be
       -0.22321072 -0.29862964 -0.31933048 -0.17632969
0003d0 4a e5 58 bd 5b f2 85 3e 8e 20 03 be e7 93 c9 be
       -0.052953042 0.26161465 -0.12805387 -0.39370653
0003e0 19 81 3b be 28 79 89 3e b4 27 96 ba 46 6d 9e bd
       -0.18310966 0.26850247 -0.0011455924 -0.07735686
0003f0 af d0 83 be 44 7c 89 3e 34 b3 bf be 11 33 c5 3d
       -0.2574515 0.2685262 -0.3744141 0.09628881

encoder.0.0.bias f4 [64]
000000 21 d7 9c 3d 12 3b cc 3d 23 80 72 be 28 36 33 3e
       0.0765822 0.09972204 -0.23681693 0.17501128
000010 62 74 5d be ee 7b e9 3d 14 4e d9 bd dd 54 e7 3d
       -0.21626428 0.11400591 -0.10610595 0.11295483
000020 9a a3 93 bc 61 6a fb bd 93 13 9f be b7 61 39 bd
       -0.018022347 -0.122761495 -0.3106962 -0.045259204
000030 4e 81 4b 3e 5c 73 8a ba 06 f8 b1 bd 10 c5 5d be
       0.19873545 -0.0010562944 -0.08689885 -0.21657205
000040 96 1e 28 be 4e d1 f9 3a 75 2c a9 bd b7 b2 e6 3d
       -0.16417918 0.001905957 -0.08260433 0.11264556
000050 1d 93 91 3e 2e 9e 40 be a8 34 c0 bd e7 f4 e7 3d
       0.2843255 -0.18810341 -0.093850434 0.11326008
000060 00 b6 90 be c8 1e 84 bc d3 37 0b be 36 f8 56 3e
       -0.28263855 -0.016127959 -0.13595514 0.20993122
000070 6e a2 fa bd ae 1b 1b 3d 58 c8 7f 3e 62 cf 98 be
       -0.12238012 0.037868194 0.24978769 -0.2984572
000080 ee 19 2a be 1e 9e 91 3e 0c 22 17 3e d1 98 f0 bd
       -0.16611454 0.28440946 0.14759082 -0.117478974
000090 41 31 ab 3e 38 6d 5b 3e 42 6b b4 bd 6a 12 ad bd
       0.33436015 0.21428382 -0.0880952 -0.08450778
0000a0 57 c6 12 3e 09 cf 91 be 28 73 b3 be 6d 9c 50 be
       0.14333473 -0.28478268 -0.35048795 -0.20372172
0000b0 70 d7 ba be 99 96 62 3e a6 99 83 3d a1 39 7d be
       -0.3649249 0.22127761 0.064257905 -0.24729015
0000c0 54 bc 90 bb 3e dd c1 3e 36 d2 72 be 5a ba 7d be
       -0.0044169817 0.37864107 -0.23713002 -0.24778119
0000d0 60 ad b4 3d 23 23 61 be 68 db 83 be ca dd 31 3e
       0.08822131 -0.2198606 -0.2575333 0.17369762
0000e0 4e 8b d9 bd c2 a0 3f 3e 1b 23 81 bd 85 27 b6 3e
       -0.106222734 0.18713668 -0.06305524 0.35577026
0000f0 a6 95 25 be 08 8c 98 3e 3e 76 8f be 2d 8b e5 bd
       -0.16170368 0.29794335 -0.280199 -0.11208186

encoder.0.1.weight f4 [64]
000000 72 e8 9b 3f 91 b6 72 3f d3 6a 5d 3f 24 5b 52 3f
       1.2180312 0.94809824 0.86491126 0.8217032
000010 29 44 79 3f a2 aa 7c 3f 2f 5b 71 3f 00 30 99 3f
       0.9736963 0.98697865 0.9427976 1.1967773
000020 82 22 59 3f f7 3c 7e 3f ae 90 97 3f 1b 60 99 3f
       0.8481828 0.99311775 1.1841028 1.1982454
000030 2a e2 86 3f ba 14 95 3f 28 7e 82 3f 94 c8 70 3f
       1.053777 1.164695 1.019475 0.9405606
000040 b2 83 97 3f 20 7d 82 3f bf 84 7c 3f 2e 6f 8b 3f
       1.1837065 1.0194435 0.98640054 1.0893304
000050 96 66 53 3f 00 72 6d 3f 97 49 91 3f 02 63 65 3f
       0.8257841 0.92752075 1.1350583 0.896042
000060 83 2e 62 3f a8 17 83 3f f5 4e 7f 3f b5 d7 8c 3f
       0.8835222 1.0241594 0.99729854 1.1003329
000070 26 b2 8a 3f 87 ed 74 3f 3d 4d b1 3f 81 a2 7d 3f
       1.0835617 0.9567494 1.3851696 0.99076086
000080 47 a0 8c 3f 82 2d 64 3f be 76 90 3f b2 d4 77 3f
       1.0986413 0.8913194 1.1286237 0.9680892
000090 ac 71 a0 3f 72 15 8a 3f ad ac 74 3f 8f 83 87 3f
       1.253469 1.0787795 0.9557598 1.0587023
0000a0 e3 bb 7e 3f 24 57 65 3f 83 6d 4b 3f af 86 76 3f
       0.9950544 0.8958609 0.79463977 0.9629926
0000b0 94 15 6b 3f ba 41 67 3f fa 5f bf 3f 0c 96 86 3f
       0.918298 0.90334666 1.4951165 1.0514541
0000c0 55 cc 5a 3f 15 a0 86 3f 19 2c 5a 3f cd a6 49 3f
       0.85468036 1.0517603 0.8522354 0.7877014
0000d0 3c 36 55 3f 6a 38 81 3f a2 1f 78 3f ae 8a 7b 3f
       0.8328588 1.0095341 0.9692327 0.98258483
0000e0 19 b2 5f 3f a6 24 8c 3f f3 87 3f 3f 36 1a 54 3f
       0.8738113 1.0948684 0.7481682 0.82852495
0000f0 cb b5 7d 3f 63 ca 79 3f 65 21 a2 3f 9e 84 87 3f
       0.9910552 0.9757444 1.2666441 1.0587347

encoder.0.1.bias f4 [64]
000000 ea ad 33 be 6f 5e cc 3a e9 b2 8b be 40 11 73 be
       -0.17546812 0.0015592108 -0.27284935 -0.23737049
000010 b2 26 b1 3c 9e dc 1c be 1a 32 81 3d 02 58 bc bd
       0.021624897 -0.15318534 0.06308384 -0.09196474
000020 3a d5 a7 be 4e 4f c2 3d d4 d7 28 be 9f db ac bd
       -0.32779866 0.094877824 -0.16488582 -0.08440327
000030 74 66 dd bd 52 29 6a be 94 2f 83 3c c9 f8 32 be
       -0.10810557 -0.22867325 0.016013898 -0.17477717
000040 98 cd a3 bc 06 06 9a bd 0b 33 9e bd 37 44 24 be
       -0.019995496 -0.0752068 -0.077245794 -0.16041647
000050 ce 8e 21 be f6 ac 9b be 89 15 01 be 24 17 8a be
       -0.15777132 -0.30405396 -0.12605871 -0.2697078
000060 cc 85 86 be c3 c7 7d bd 78 74 c4 bd e3 be 39 be
       -0.26273954 -0.061958086 -0.09592527 -0.18139224
000070 c1 25 c2 3d f1 da a8 3d 9e 37 61 be 02 da 74 bd
       0.09479857 0.08244885 -0.21993873 -0.05977822
000080 70 9c 46 be 27 78 2b be 7d a2 58 be 6e 9e e5 39
       -0.19395614 -0.16745053 -0.21155734 0.00043796323
000090 bc b3 1e be e4 88 a5 bc 88 be 7a be 9c ca 09 be
       -0.1549825 -0.020206876 -0.24486744 -0.13456196
0000a0 f6 97 6d 3d 2d e9 86 be cc 1d a2 be c9 a1 08 be
       0.05800625 -0.26349774 -0.31663358 -0.13342966
0000b0 31 16 d6 bd ca cd 84 be c0 1b 8c be 59 64 c7 bc
       -0.104534514 -0.25938255 -0.27364922 -0.024339842
0000c0 5b 1e 17 be e0 de 68 3e be 1f 3f be 6c 10 2a be
       -0.14757673 0.2274127 -0.18664452 -0.16607827
0000d0 89 2b 78 be 6e 37 bd bc aa 43 73 3d cd 27 94 bc
       -0.24235357 -0.02309772 0.0593907 -0.018085385
0000e0 d7 13 69 be b9 9e 4d be 6c dc 7c be fc 61 5d be
       -0.22761475 -0.20080079 -0.2469346 -0.2161941
0000f0 24 a8 67 bd 20 28 22 be bc b5 04 be bb c9 98 bc
       -0.056556836 -0.15835619 -0.12959951 -0.01865088

encoder.0.1.running_mean f4 [64]
000000 6d 20 28 3d 55 e9 5d 3d f2 05 2d be cc 74 88 3e
       0.04104655 0.0541776 -0.16896799 0.2665161
000010 a4 88 86 be c5 98 b9 3d ba 08 00 be 3e 8c aa 3d
       -0.26276124 0.090623416 -0.12503329 0.0832753
000020 61 be 0c 3d a1 21 16 be 3f 32 b7 be 00 57 c2 bd
       0.034361247 -0.14661266 -0.35780522 -0.0948925
000030 60 93 2d 3e 90 41 06 bd d6 ab 22 be 42 d7 67 be
       0.1695075 -0.03277737 -0.15885863 -0.22640708
000040 08 4b 4c be 6f 15 e6 bc 89 17 f5 bd ca af c1 3d
       -0.19950497 -0.028086392 -0.119673796 0.09457357
000050 59 7c 92 3e ad 31 0d be be b3 13 be 03 92 17 3e
       0.28610495 -0.13788481 -0.14424035 0.14801793
000060 ce aa 92 be f4 a3 7f bd 5e f6 2f be 7e 85 30 3e
       -0.2864594 -0.062412217 -0.17183825 0.17238423
000070 28 bb 21 be 86 0e 34 bb d6 ca 4e 3e 65 4b af be
       -0.1579405 -0.0027474477 0.20194563 -0.3423721
000080 74 d2 53 be 23 17 91 3e ed 6d 95 3d 54 24 13 be
       -0.2068575 0.28337964 0.07296357 -0.14369327
000090 0b fe 89 3e 7e 4b 39 3e 74 c1 d2 bd 98 ca dc bd
       0.26951632 0.18095204 -0.102908045 -0.10780829
0000a0 65 aa ea 3d 0f 06 8f be 0d b3 9a be 5d 2c 53 be
       0.114582814 -0.2793431 -0.3021473 -0.20622392
0000b0 99 85 c2 be 48 c3 5b 3e bd ef 3b 3b c6 89 8d be
       -0.37992552 0.21461213 0.002867683 -0.27644175
0000c0 06 99 22 3c f1 63 b3 3e 17 61 5e be ca 15 72 be
       0.009924179 0.35037187 -0.21716724 -0.23641124
0000d0 ec 11 fb 3d f2 82 83 be 58 1c 92 be 57 0b ff 3d
       0.12259278 -0.2568584 -0.2853725 0.12453335
0000e0 ba 1e d7 bd 54 1c 12 3e 1b f8 ed bb fc 80 b8 3e
       -0.105039075 0.14268619 -0.0072622425 0.36035907
0000f0 17 58 31 be 61 b0 95 3e aa 50 ab be ba 0f 0e be
       -0.1731876 0.2923613 -0.3345998 -0.13873187

encoder.0.1.running_var f4 [64]
000000 be 35 48 3c 5c 34 b9 3c e4 78 e4 3c 63 93 41 3d
       0.012219844 0.022607975 0.027889676 0.0472597
000010 84 18 ed 3c 0d 91 cd 3c 3c 8c 27 3c 9a b2 28 3c
       0.028942354 0.02509358 0.010226306 0.010296488
000020 1f 47 c2 3c a3 eb b3 3c 53 14 e3 3c 68 4b bf 3c
       0.023715554 0.021962946 0.027719652 0.023351386
000030 39 d8 68 3c 8f 34 35 3c 98 1e 31 3d 56 11 1c 3c
       0.014211708 0.011059894 0.043242067 0.009525618
000040 e1 69 83 3c f1 67 e8 3c 2f 37 c4 3c 82 fc 57 3c
       0.016041698 0.028369876 0.023952095 0.013182761
000050 4e 04 15 3c 4f 53 94 3c 31 ae cf 3c a3 bb 3c 3c
       0.009095265 0.01810613 0.025351616 0.011519345
000060 c7 97 2b 3c 74 6c 00 3d 97 8e e3 3c 5d 3f d7 3c
       0.010473198 0.03135343 0.027777953 0.026275331
000070 43 b7 51 3c 62 fe dd 3c 88 df c2 3c ea 92 2a 3d
       0.012800041 0.027098838 0.023788229 0.041644014
000080 4c 7e 97 3c 42 e7 d6 3c 60 69 3d 3d be fe b0 3c
       0.01849284 0.02623332 0.04624307 0.021605846
000090 49 84 0c 3d e3 79 16 3d 9d ef 2d 3c 15 30 89 3c
       0.034305844 0.036737334 0.01061621 0.01674656
0000a0 a6 cf 8b 3c ee 7f 18 3c 96 e0 8a 3c da f0 41 3c
       0.017066788 0.009307845 0.016952794 0.011837209
0000b0 72 11 4e 3c 30 d2 72 3c 0f 39 02 3d 59 46 33 3d
       0.0125774015 0.01482062 0.031792697 0.04376826
0000c0 5f 89 54 3c 36 1e 79 3c ac ca 80 3c 87 af 83 3c
       0.012972205 0.015204957 0.015721641 0.016074909
0000d0 25 fa 9f 3c 92 ef a4 3c 8b ce 8d 3c 87 b9 ef 3c
       0.019528458 0.020133767 0.017310401 0.029263271
0000e0 c9 b3 b3 3c 8a 0f 01 3d d7 18 c5 3c 87 fc 7a 3c
       0.021936314 0.03150896 0.024059696 0.015318996
0000f0 08 cf 25 3d 1f ff d1 3b ad 28 01 3d b7 d2 67 3c
       0.040480644 0.0064085866 0.031532932 0.014149359

encoder.1.0.weight f4 [64, 64, 3, 3]
000000 be fc e3 bc 30 76 2e ba b9 d7 8b bc bc 5a f9 bb
       -0.027830478 -0.00066551846 -0.017070638 -0.0076096933
000010 fa d3 d6 bb 5e 0c 9f 3d 20 62 b6 bc 8b 5c c1 3d
       -0.0065560313 0.07766031 -0.022263587 0.09441479
000020 75 0f d1 bb 52 7c 0d 3c 7a c4 ac bc e3 13 cf bb
       -0.0063800164 0.008635597 -0.021089781 -0.0063195094
000030 31 1e c0 3c fe 77 46 bc cc f6 ad ba 21 ca 00 bd
       0.023451896 -0.012113569 -0.0013272404 -0.031442765
000040 f2 e5 b7 3b 6d 32 bf 3c 15 08 0d 3d 02 77 0e bd
       0.0056121284 0.023339475 0.034431536 -0.034781463
000050 05 ad fc 39 b0 08 36 bd 92 2b 56 bd 5d 56 29 bd
       0.00048194095 -0.04444188 -0.052287646 -0.041342128
000060 74 f5 28 3d f7 91 3b bc 80 48 45 bd b5 95 3e 3c
       0.041249707 -0.011448375 -0.048164845 0.011632373
000070 77 17 3b bd e6 9a 89 bc 6f ba af 3b 7b 52 cf bc
       -0.045676675 -0.016797494 0.005362801 -0.025307884
000080 a6 b9 8f bc 52 6c 4a 3c 2f 9b 6c 3c e7 6a 82 bc
       -0.017544579 0.012354927 0.0144412955 -0.015920116
000090 43 5c a1 bb 1a d4 8a bc 79 d1 38 3d 6f f7 f8 bb
       -0.0049243285 -0.016946841 0.045121644 -0.0075978558
0000a0 0d 12 5e 3d 9d e7 01 3d aa d5 16 bd 45 47 ea 3c
       0.054216433 0.031715024 -0.03682486 0.028598437
0000b0 8b 04 5a bd 50 e0 cd bb 49 82 25 bd 3e de 25 3c
       -0.05322699 -0.0062828436 -0.040407453 0.010123787
0000c0 7b 46 67 bd bc 01 0e bd 43 5b 5a 3c b3 48 93 bc
       -0.0564637 -0.034669623 0.013327423 -0.017979002
0000d0 30 ad 34 3b fe b4 07 bd bb 70 25 3d b3 91 55 3c
       0.0027569048 -0.033131592 0.04039071 0.013035226
0000e0 96 58 ab 3c 20 a7 31 3c d5 3d 68 3b 16 34 30 3d
       0.020916265 0.010843068 0.0035437245 0.043018423
0000f0 99 ad 83 bc 33 19 83 3d 4c 9e 0a bd cf 94 ad 3c
       -0.016073989 0.06401291 -0.03384237 0.021189122
000100 7c 02 a3 bd 04 03 06 bd 58 5b 6c bc 83 25 ce bd
       -0.07959458 -0.03271772 -0.014426075 -0.100657485
000110 a5 15 31 3d d5 78 78 bc 88 c2 57 3d 19 3a 8f 3c
       0.043233532 -0.015165527 0.052675754 0.017483758
000120 c4 89 9b bc 9d d2 f1 bc c5 67 0b 3d 87 cb 12 bd
       -0.01898659 -0.029519374 0.03403451 -0.03583863
000130 11 01 f6 3c 7f 8e 75 3c 33 75 07 bb f2 fc 2f 3d
       0.030029805 0.014987587 -0.0020669221 0.042965837
000140 e3 48 74 ba 1a 7f 74 3d a4 cb c8 3c f2 6c 6c 3b
       -0.00093187223 0.059691526 0.024511166 0.0036075679
000150 89 46 a3 3c 32 1a 9f 3c 2e 28 53 3d c5 57 70 3c
       0.019931095 0.01942167 0.05155199 0.014669363
000160 37 18 f5 bc 2b 79 cf bc 93 64 dc 3c 2a b9 91 3d
       -0.029918773 -0.025326332 0.026903426 0.07115395
000170 ba d7 bb 3d ba f6 70 bc a7 17 90 3d fd 88 17 3a
       0.09172006 -0.014707262 0.07035761 0.0005780606
000180 5c 6d 08 be 6a 6d c1 3d 22 e1 ab bc f5 8c cd 3c
       -0.13322967 0.09444697 -0.020981375 0.025091628
000190 83 56 2a 3c 3d 60 46 3d f4 d5 1d 3d 12 86 b8 3d
       0.010396603 0.048431624 0.03853412 0.09009947
0001a0 b8 4d 33 3d da 83 75 bb 72 6a 28 3d cd d4 94 3d
       0.04377529 -0.0037462623 0.04111714 0.07267151
0001b0 3f 3b 67 3c e0 82 f8 3d 2e df 7b 3d b4 70 92 bc
       0.014113246 0.121343374 0.061492138 -0.017876007
0001c0 1a 49 94 bc a1 aa 71 bc 42 cb 73 3c 9f 4d 1a 3d
       -0.018101264 -0.014750154 0.014880003 0.03767168
0001d0 47 f7 8d 3d b0 5c 34 3d 72 37 db bc 2c e5 52 bb
       0.0693193 0.044033706 -0.026759837 -0.0032180054
0001e0 ab 07 92 3d 56 d2 34 3c af 0f f1 3c d2 27 75 3d
       0.07130369 0.011036476 0.029426424 0.05985243
0001f0 a5 40 bb 3d 87 d0 4a 3d fa f8 cc bc 4c 25 95 bc
       0.09143189 0.049515273 -0.025021065 -0.018206261
000200 3a b1 c9 3b 2f 96 28 bd 8c 74 26 bc 7a 5a ac ba
       0.0061551603 -0.04115885 -0.010159623 -0.0013149523
000210 bd 54 74 bd 9b a8 a5 3d dd d8 65 3b b7 4b 60 3c
       -0.059651125 0.080887996 0.0035071888 0.013689927
000220 10 20 07 bd 6f 89 40 bc bb 2a 87 bc f4 97 26 bd
       -0.03298956 -0.011751517 -0.016499868 -0.040672258
000230 7d 8c af 3b df 32 18 3d 82 78 11 bd c2 e6 1b 3c
       0.0053573237 0.03715789 -0.035515316 0.009515466
000240 cd de 4b 3d 06 f5 12 3d 6e 38 a7 3c a2 43 0a bc
       0.049773026 0.035878204 0.02041265 -0.0084389765
000250 45 c7 0f 3d fd c1 ae 3c 05 a3 9d bd 70 09 21 3d
       0.035102148 0.021332735 -0.07697109 0.03931564
000260 04 c3 75 3d 5c fc 93 ba f2 8d 82 3c b9 f1 1c bd
       0.060000435 -0.0011290419 0.015936825 -0.038316462
000270 36 be 2c 3c 59 46 af bc cd 82 ce 3b 98 6d d8 3c
       0.010543397 -0.021395849 0.0063022138 0.026419446
000280 15 3a 4e 3d ad a6 aa 3c 64 5d 58 bd f0 17 76 bc
       0.05034836 0.02083143 -0.05282344 -0.015020356
000290 af dd df bc 62 70 7b bd aa b8 8e bb f2 25 bb 3c
       -0.027327387 -0.061386473 -0.0043555098 0.022845242
0002a0 f8 a7 87 bd 70 13 08 3d 53 b4 52 3c b6 95 50 3b
       -0.06623834 0.033221662 0.012860375 0.0031827516
0002b0 36 c6 d6 3c 6f 82 14 3d 87 4d 11 3d f7 8e 4a 3d
       0.026217561 0.036257204 0.035474326 0.04945275
0002c0 82 5b 0c 3d 5f 34 2e 3d 28 e2 6c 3d 41 86 68 3c
       0.034266956 0.042530414 0.057832867 0.014192165
0002d0 09 6e ab 3c 0e 0b 64 3c d9 d2 0f 3c 10 e9 fd 3c
       0.020926492 0.013918651 0.008778297 0.030994922
0002e0 48 b3 85 bd 5c fe 27 bd 3c 35 5f 3d 3b 92 8e bc
       -0.06528336 -0.04101406 0.054494128 -0.017403712
0002f0 d9 35 43 3d bc e2 43 bd ff a8 69 bc 05 61 88 3c
       0.047658775 -0.047823653 -0.014261483 0.016647825
000300 27 13 92 3c bc 92 84 bd af 30 70 bc 85 30 94 ba
       0.017831398 -0.064733 -0.014660045 -0.0011305964
000310 b7 90 43 bd 46 9b 74 bc 15 ae 92 bc ec 9c 95 bc
       -0.047745433 -0.014929598 -0.017905274 -0.018263303
000320 f2 93 64 bb 52 ab 45 3d 19 5d a1 bb 22 f8 c2 3d
       -0.0034878221 0.048259087 -0.004924428 0.09519984
000330 15 89 2e 3c 2e 51 a4 3c fa a6 bc 3d 09 fd b8 3b
       0.0106528 0.02005824 0.09211536 0.0056453985
000340 60 96 06 bd ac 75 6e ba 00 8d 6f 3d 54 fb a8 bc
       -0.032858253 -0.0009096514 0.058484077 -0.020627655
000350 ad f1 7c 3c 18 52 c5 3c 02 5e 93 3c be 5d 0a 3c
       0.015438479 0.024086997 0.017989162 0.008445201
000360 ce 84 53 3b 24 56 b7 bc 5f 06 34 bd 11 b2 12 bd
       0.0032275203 -0.022379942 -0.04395139 -0.03581435
000370 91 89 22 bd b1 18 ea 3c 04 98 94 3a b1 e6 f8 3b
       -0.039681975 0.028576227 0.0011336808 0.00759586
000380 af 31 a0 3c 9f f1 a2 3c 86 68 f9 bb 86 b0 1f 3d
       0.019554941 0.019890605 -0.007611337 0.038986705
000390 d8 bc 23 ba 65 5e ac 3c 8b 0b 10 b9 92 d8 70 bc
       -0.00062460965 0.021041105 -0.0001373721 -0.014700072
0003a0 7d 22 90 3b b9 9e 92 bc c1 83 5c 3b 66 4e 0f ba
       0.0043986426 -0.01789795 0.0033647867 -0.00054666994
0003b0 cd 4c 8a 3c 68 a6 6c bd 8f 66 0f bd 18 c9 4c 3d
       0.016882325 -0.057775885 -0.035009917 0.049996465
0003c0 1a e8 fc bc b5 84 08 3d 44 f5 cf 3c 2c 27 2b bc
       -0.030872393 0.033329684 0.025385506 -0.010446351
0003d0 b9 71 1b bd 84 51 a0 3c e1 c6 95 bd 3d 4c a0 bd
       -0.03795025 0.01957012 -0.07313324 -0.07827041
0003e0 ec 3f 98 3d fa 7f 00 bd b5 54 93 bc 4c d6 83 3c
       0.07434067 -0.031372048 -0.017984727 0.016093396
0003f0 df c5 73 bd a9 1f 9b bd ec 95 0f 3c 98 ca 96 bd
       -0.059514876 -0.07574398 0.0087637715 -0.073628604

encoder.1.0.bias f4 [64]
000000 fc 2b d2 bb 58 c6 6a 3d c0 a0 00 bb ab 5f 1b bd
       -0.0064139348 0.05731806 -0.0019627064 -0.037933033
000010 91 58 bc ba da 73 cf bc 30 84 f5 bb 6c bb 55 3d
       -0.0014369657 -0.025323797 -0.0074925646 0.052180693
000020 49 52 0f 3a 05 6b fa bb 69 63 92 bd 31 7a 44 bd
       0.00054672785 -0.0076421523 -0.07147867 -0.047968093
000030 34 5f 37 3d af 02 39 3c 71 3c fb 3c 1b 5e 42 3d
       0.044768527 0.011292144 0.03066847 0.047453027
000040 ef 29 37 3c e6 1b 42 bd ce 19 91 bc 94 fe 41 3c
       0.011179431 -0.047389887 -0.0177125 0.011840481
000050 21 71 df bc 27 36 57 bd 55 63 1e bd 9c 4f 20 3d
       -0.027275624 -0.052541878 -0.03866895 0.03913842
000060 60 4b f3 bc 3a 82 ea 3b 44 fa ba 3a 5d d3 45 3d
       -0.029699028 0.0071566375 0.0014265259 0.048297275
000070 4b de b9 3c 90 54 d3 bc ae d5 c1 3b 1d e9 85 3d
       0.022689005 -0.025797158 0.005915365 0.065386035
000080 8b cc 06 bd 9e ec 49 3c 50 9f e5 bd 18 20 c8 3c
       -0.03290991 0.01232448 -0.11212027 0.024429366
000090 c6 67 0a bd f5 e8 a9 3c 1a 8d 2d bb e2 31 88 3d
       -0.033790372 0.020740965 -0.0026481808 0.066501394
0000a0 49 34 41 bd fa 6b a6 3b 62 2a b8 3c 90 ec 34 3d
       -0.047169004 0.00507879 0.022481147 0.044170916
0000b0 ff 3a 1a bc 7b ed ab 3c e7 03 fa bc 68 3b 28 bd
       -0.00941348 0.020987263 -0.030519439 -0.04107228
0000c0 13 f9 e6 3c 7b 41 58 3d 42 b7 1b 3d e8 fc af bc
       0.02819494 0.052796822 0.038016565 -0.0214829
0000d0 f5 a9 7f b9 0e 01 83 ba 3f 07 86 3d 02 65 4f 3c
       -0.00024382009 -0.0009994821 0.06544351 0.0126583595
0000e0 83 06 de 3c ba 5b 97 bc 2c bb 33 3b bd 57 0b bd
       0.027102714 -0.018476356 0.0027424796 -0.03401922
0000f0 ca 4b d6 3b 6c ef 34 bd 67 52 71 3b c9 32 b0 39
       0.0065397965 -0.044173643 0.0036822797 0.00033607174

encoder.1.1.weight f4 [64]
000000 4a 00 83 3f f2 a7 82 3f 54 2c 70 3f 14 fd 80 3f
       1.0234463 1.0207503 0.9381764 1.0077233
000010 d2 e3 86 3f bb 0c 7f 3f 70 a3 77 3f a8 5a 7c 3f
       1.0538275 0.996288 0.9673376 0.9857583
000020 a9 e9 77 3f 25 7a 8c 3f f3 23 72 3f c4 3a 87 3f
       0.9684091 1.0974776 0.94586104 1.0564809
000030 37 b1 87 3f 05 09 71 3f 5b ff 83 3f c2 1f 80 3f
       1.0600957 0.9415439 1.0312303 1.0009692
000040 78 b6 77 3f 73 5c 75 3f ba 4b 79 3f 72 f2 8c 3f
       0.967628 0.9584419 0.97381175 1.1011488
000050 b0 dc 80 3f 1a 36 6c 3f e4 1f 72 3f bb ca 77 3f
       1.0067348 0.9227005 0.9457991 0.9679372
000060 0f f7 7f 3f 5d 74 81 3f 22 17 74 3f 6e ee 80 3f
       0.99986356 1.0113636 0.953478 1.0072763
000070 b9 d9 79 3f c5 41 8c 3f b9 ab 87 3f 3c 21 7e 3f
       0.97597843 1.0957571 1.059928 0.9926946
000080 53 9f 7b 3f 87 0c 80 3f 1c bf 82 3f 6e 94 7d 3f
       0.98289984 1.0003823 1.0214572 0.9905461
000090 d8 fe 88 3f 9a ec 80 3f 7e 84 76 3f da f3 76 3f
       1.0702772 1.0072205 0.9629592 0.9646584
0000a0 42 39 7a 3f 24 4e 73 3f e2 02 82 3f 45 81 82 3f
       0.9774362 0.9504111 1.015713 1.01957
0000b0 7d 5d 83 3f 48 f1 81 3f 1a 2f 80 3f 86 ab 7c 3f
       1.0262905 1.0151758 1.0014374 0.98699224
0000c0 32 2a 6a 3f 1c 8c 80 3f 4d 58 7c 3f ad b3 83 3f
       0.91470635 1.0042758 0.98572236 1.0289208
0000d0 b4 82 82 3f 29 12 84 3f 91 37 8a 3f 2e 88 7b 3f
       1.0196137 1.0318042 1.0798208 0.9825467
0000e0 6c b9 7e 3f 5c 01 85 3f 2e a1 75 3f 17 56 85 3f
       0.9950168 1.039104 0.95949066 1.0416898
0000f0 07 90 81 3f 4f f3 89 3f 69 20 71 3f 89 a1 84 3f
       1.0122079 1.0777377 0.9419008 1.0361797

encoder.1.1.bias f4 [64]
000000 6b 39 f1 bd 97 7f ec bd d6 57 1d be c8 42 32 be
       -0.1177853 -0.11547773 -0.15365538 -0.17408288
000010 7a 7b e9 bd c5 bb fd bd 56 a7 1f bd 7e 91 8d bd
       -0.114005044 -0.1238933 -0.038977943 -0.06912516
000020 bd cb 82 bd ec df 80 be a4 e7 72 bd f0 eb a2 bd
       -0.06386516 -0.2517084 -0.05930294 -0.07955158
000030 44 c9 8a bd 4f a9 ea bd 6d 3b 3f 3a b5 e8 74 bc
       -0.067766696 -0.11458074 0.0007294927 -0.01494806
000040 42 fb 0a be b6 21 33 be 3a e2 5c bc ca ef 1b be
       -0.1357241 -0.17493328 -0.013481671 -0.15228191
000050 09 ca 17 3b 03 6a 10 be 04 ac a1 bd 74 69 d2 bd
       0.0023161194 -0.1410294 -0.078941375 -0.1027402
000060 94 24 25 be 62 dc 43 bd e5 21 35 be 7f 7f 0a be
       -0.16127235 -0.047817595 -0.17688711 -0.13525198
000070 ec 8a 8b bb e1 41 04 be 6c d0 bd bd d1 83 5c bc
       -0.004258504 -0.12915756 -0.09268269 -0.013459162
000080 92 82 26 bd c1 4e 1f be 3b 85 2c be 57 93 b7 bd
       -0.040651865 -0.15557386 -0.16847698 -0.0896365
000090 4f 8a 15 be e8 bb 26 bd fe 34 69 bd c6 82 8c bc
       -0.14603542 -0.040706545 -0.056935303 -0.017152201
0000a0 6e e7 a9 bd f5 89 24 be eb c3 0f be 21 a1 6e bc
       -0.08296095 -0.16068251 -0.1403958 -0.014564783
0000b0 5f 5b dd bd ab f7 46 bb 0f 74 b4 bd 63 8e 6a bd
       -0.10808443 -0.0030360024 -0.08811199 -0.057264697
0000c0 17 1b 60 bd 78 b1 c3 bc 09 d4 46 bd ca 03 22 3b
       -0.054713335 -0.023888335 -0.048542056 0.0024721497
0000d0 c9 b9 8b bd 5e 8c 00 be 17 8b c7 bc fa 64 23 be
       -0.06822545 -0.12553546 -0.024358315 -0.15956488
0000e0 6a d8 f7 bd bf d0 42 bc 41 b5 df bd 35 e6 ce bd
       -0.121018246 -0.011890589 -0.10923243 -0.10102502
0000f0 ce c8 13 be c7 83 01 be 31 11 24 be 7b 72 c9 bd
       -0.1443207 -0.12647925 -0.16022183 -0.098362885

encoder.1.1.running_mean f4 [64]
000000 af 90 84 3f d2 d9 b6 3d 13 a7 ac 3d f8 a2 c3 be
       1.0356654 0.08928265 0.084303044 -0.38210273
000010 3f 3f eb 3e e6 ab b2 3f ca ae 36 3e 36 c7 31 bf
       0.4594669 1.3958709 0.17840114 -0.69444597
000020 3f 92 17 bf 69 84 71 3f 2f a4 81 be ac bb 83 bf
       -0.5920753 0.94342667 -0.25320575 -1.0291648
000030 f5 1f 3e bf ad 60 cd be 35 e0 83 3e 70 50 54 bf
       -0.7426751 -0.4011282 0.25756994 -0.8293524
000040 b4 e1 c4 3f 52 05 47 bc c3 48 3f be 99 27 d3 be
       1.5381379 -0.012147265 -0.186801 -0.41241148
000050 76 fb 11 bf 00 bc 38 3f d4 df 05 bf 82 0a 1c be
       -0.57024324 0.72161865 -0.5229466 -0.15238383
000060 50 d2 64 be 23 9e 36 be aa 41 a1 3f cd 83 ee be
       -0.22345853 -0.17833762 1.2598164 -0.4658493
000070 35 4c 7d bf fe 12 f5 be ec 5f 47 3e 0a 16 08 3e
       -0.9894441 -0.47866052 0.19470185 0.13289657
000080 50 c6 44 bf 66 b2 5e bf 6a c5 25 3e a6 31 40 bf
       -0.768651 -0.86990964 0.16188589 -0.7507576
000090 0e e4 de bd 90 2d 7e bd 26 ec d9 be 3e 02 7f be
       -0.10883342 -0.06205517 -0.4256298 -0.24903199
0000a0 c2 31 2a bf 44 75 88 3e 4a d8 22 bf f3 3b 01 bf
       -0.66482174 0.26651967 -0.6361128 -0.504821
0000b0 7e 3f 60 3e c0 64 5f bf 5a 89 3e bf 7d 6a 0c c0
       0.2189922 -0.8726311 -0.7442833 -2.1939995
0000c0 7f 11 01 3f 14 69 bd be fa b3 ae be 7e e1 53 bf
       0.5041732 -0.3699423 -0.34121686 -0.8276595
0000d0 06 9a 19 be da aa 28 bf 1c ce 1e c0 18 56 58 be
       -0.15000162 -0.658857 -2.48133 -0.21126592
0000e0 ee d7 2e be 3c 3a 93 3d a1 e2 6f 3e 5e 71 76 3f
       -0.17074558 0.07188842 0.23426296 0.96266735
0000f0 49 19 00 3f 8e ae 9b 3f b7 1a 91 3f ea a3 62 bf
       0.5003858 1.2162645 1.1336278 -0.88531363

encoder.1.1.running_var f4 [64]
000000 d0 aa 59 3f 7e 4c 9a 3f ee db 14 3f b0 a1 8f 3f
       0.85026264 1.2054594 0.58148086 1.1221218
000010 84 ed 61 3f bd b0 65 3f 75 da ac 3f e8 9a 8c 3f
       0.88253045 0.89722806 1.3504168 1.0984774
000020 d2 d8 8d 3f 79 1c 41 3f 9e 14 9a 3f b3 df f7 3f
       1.1081793 0.7543407 1.2037542 1.9365143
000030 a5 83 22 40 b0 3f 2c 3f 9e b8 69 3f 9c c3 b8 3f
       2.539285 0.6728468 0.9129733 1.4434695
000040 5c 40 2b 40 3d 15 e5 3f 2e c1 9a 3f 28 f7 b2 3f
       2.6758032 1.7897106 1.2090204 1.3981676
000050 62 b3 45 3f c4 6c f9 3f d6 34 d6 3f b3 0c b1 3f
       0.7722684 1.9486318 1.6734874 1.3832
000060 b1 9f 24 40 74 ea 59 3f f1 93 3c 40 a8 20 e7 3f
       2.5722468 0.8512337 2.9465296 1.8056841
000070 2d e7 8e 3f 6c 84 60 3f e9 e2 46 3f 17 5e 0b 40
       1.1164299 0.8770206 0.7768999 2.1776178
000080 93 45 8f 3f 2f fa 09 40 89 ca 34 3f b6 58 8d 3f
       1.1193107 2.155895 0.70621544 1.1042697
000090 dd 5d 9f 3f 00 11 60 3f a1 84 df 3f b1 82 b9 3f
       1.245052 0.8752594 1.746235 1.4493009
0000a0 85 ef 71 3f b1 b6 95 3f 60 c1 05 40 e3 a4 8f 3f
       0.945061 1.1696378 2.0899277 1.1222194
0000b0 cd 3b 9f 3f b5 e2 8d 3f d6 8c 9e 3f 51 ea 6d 40
       1.2440125 1.108481 1.238673 3.7174265
0000c0 82 f0 67 3f 22 44 ee 3f 16 e4 b1 3f c3 bc c1 3f
       0.9060136 1.8614542 1.3897731 1.513573
0000d0 2d 04 16 40 d0 5d 9b 3f 89 83 6e 40 a5 21 88 3f
       2.3440049 1.2138004 3.7267783 1.0635267
0000e0 41 1a a5 3f f5 82 80 3f 61 66 f7 3f ed cc 2b 3f
       1.2898637 1.0039965 1.9328119 0.67109567
0000f0 2c 97 76 3f 5d 98 83 3f 0d dd 0b 40 92 78 f7 3f
       0.9632442 1.0280873 2.1853669 1.933367

encoder.2.0.weight f4 [64, 64, 3, 3]
000000 2d 26 6e 3c 7f a9 b3 3c 0b 4d 84 3c ca 04 ca bb
       0.014535469 0.021931408 0.016150018 -0.0061651217
000010 f6 ca 1c bc 48 c0 84 bc 6f f0 b0 3c 0c 82 ae 3b
       -0.009569874 -0.016204968 0.021599023 0.0053255614
000020 b0 c4 03 3c ee 2f 7a bc 0e 78 82 3b 34 31 31 3d
       0.008042499 -0.015270216 0.003981597 0.043259814
000030 49 a2 af 3c 10 a3 22 bc 58 7f d0 bc c7 b5 75 3d
       0.021439688 -0.009926572 -0.025451347 0.05998781
000040 77 a5 9c bc 8d ad 3a bd c8 77 e5 3c db 0f 90 3d
       -0.019121869 -0.045575667 0.028011218 0.07034274
000050 07 01 bf 3d fa 1c f7 3c 45 7c 69 3c 6a 64 83 3d
       0.09326368 0.030165184 0.01425082 0.06415637
000060 91 1c 12 3c 79 b6 08 3d 38 c3 0c 3d f4 49 91 3c
       0.008917944 0.033377144 0.034365863 0.017735459
000070 9f e4 e2 bc e3 a3 d7 bb 60 ce 8f bb 46 d8 32 bd
       -0.027696906 -0.006580816 -0.0043886155 -0.043663286
000080 4a c7 62 bd ce 6f 58 3d 76 9c 86 bc f1 e4 de ba
       -0.055365838 0.052841 -0.016432028 -0.0017005486
000090 95 fe 0d bc 82 9d 4b 3d 0d 94 aa 3b 2d 26 a1 3d
       -0.008666654 0.049710758 0.0052056373 0.078686096
0000a0 7a bc ad 3d d6 d1 ad bd 09 ff c3 3c 51 74 4b 3d
       0.08483215 -0.08487289 0.023925321 0.049671475
0000b0 87 3e b3 bd 36 40 09 3d 3e 32 d1 3d b3 25 be 3b
       -0.087521605 0.033508502 0.10214661 0.005802834
0000c0 6e 90 f4 3c 14 07 c5 3c 0b 66 41 3d 35 e4 7b bc
       0.029854026 0.024051227 0.047216456 -0.015374233
0000d0 dd f3 0d 3d 91 d8 dc bb 01 ba 93 3c 14 67 25 bd
       0.034656394 -0.006739684 0.01803303 -0.040381506
0000e0 6d 8b 26 bd 0a 27 37 3d 22 12 26 3d 29 ba 1b bd
       -0.04066031 0.044714965 0.040544637 -0.038019333
0000f0 4a 18 4f 3c d8 77 2f 3d af b1 c4 bc 02 1e 0f 3d
       0.012640068 0.0428389 -0.024010507 0.034940727
000100 85 c9 9f bc 31 d3 53 bc 0f 44 d6 ba e3 1c 61 bd
       -0.019505272 -0.01292877 -0.0016347187 -0.05495919
000110 73 4e b1 bc 0c 79 d2 bc 1c c1 d3 bc c7 14 a8 bc
       -0.021643853 -0.025692485 -0.025848918 -0.02051772
000120 d0 0f 60 bc db d2 ba 3b 52 e3 ee 3c 76 32 bf 3c
       -0.013675645 0.0057014055 0.02916113 0.023339491
000130 54 5e 26 3b 2b 54 54 3d 7d 72 45 3d 6a c4 89 3d
       0.0025385814 0.05183808 0.048204888 0.06726916
000140 ef e8 08 bc 0b 21 b0 3c 63 1e af 3d 40 1a 8a bd
       -0.008356317 0.021500131 0.08550718 -0.06743288
000150 17 06 66 3d cd 5a b4 3c 7a 37 f7 bd 26 e8 15 3d
       0.05615815 0.022015953 -0.12071128 0.036598347
000160 8d 38 81 bd f4 88 13 bd 86 5c b7 3c 0a f9 cc bc
       -0.06309614 -0.03601928 0.022382986 -0.025021095
000170 f8 3e 2e 3d 08 66 1a bc 7c 7f c9 bb b7 64 01 3c
       0.04254052 -0.00942374 -0.0061492305 0.007897547
000180 6b dd b5 bb f5 88 9e bc 80 a6 31 bc 2f fa ec bc
       -0.0055500767 -0.019352416 -0.010842919 -0.02892789
000190 8f 20 99 3b e5 db 36 bc 34 e3 ec 3b 97 05 cb bc
       0.0046730707 -0.011160825 0.007229233 -0.024782939
0001a0 ac ae f7 bc d9 f0 d2 bc d4 79 d1 3c 56 78 8b bd
       -0.030234657 -0.02574961 0.025570787 -0.06810062
0001b0 80 e5 0b bd a8 10 de bc 6b 3a 1d 3b 0a 07 c2 bd
       -0.034154415 -0.027107552 0.0023991119 -0.09473999
0001c0 c9 2e a3 bc fe 9b 9a 3c cd 0a ea bc 96 e5 df 3d
       -0.01991977 0.018873211 -0.028569603 0.10932462
0001d0 51 78 ad 3c d3 f6 78 3c 86 bb b0 3c 94 7c d1 bc
       0.021175535 0.015195566 0.021573793 -0.025572099
0001e0 da b1 4c 3c fd 97 8f bc 33 3d 08 3d a2 4a d2 3b
       0.012493575 -0.017528528 0.03326149 0.0064175883
0001f0 6e 01 43 3d 93 b3 36 3d ab ec 80 bb 01 24 13 bb
       0.047608785 0.04460485 -0.003934463 -0.002245188
000200 b1 eb 20 3c 5c 99 3b bd e1 ad 09 3d e3 cd 03 3d
       0.009821818 -0.04580055 0.03361309 0.03217877
000210 cf c6 68 bc 93 78 66 bb c5 ca 9b 3c d6 4f de bd
       -0.014207556 -0.0035167083 0.019017586 -0.10855071
000220 54 3d 6c bd 1f 8d 5c bd 40 6a c8 3c 2a 15 04 bd
       -0.057675675 -0.05384552 0.024464726 -0.032246746
000230 24 43 d3 bc 28 e1 73 3b 81 32 84 3d 9f 2c d4 3c
       -0.025788851 0.003721306 0.06454945 0.025900183
000240 b2 e9 af bc d0 b1 1b 3b 5e 17 02 bd 95 24 68 3c
       -0.02147374 0.0023757108 -0.031760566 0.014168878
000250 1e 08 cd 3d 8c 1f 24 bc 89 b7 81 3d d3 21 d6 3c
       0.10011314 -0.010017287 0.06333835 0.026139176
000260 0d 4f 00 bc 2c 14 d0 3b 38 72 9b bc 2c c7 13 3c
       -0.007831347 0.006350061 -0.018975362 0.009019654
000270 d6 66 39 bc cd 49 22 3d 66 9d ba bc 2d 64 8c 3d
       -0.011316022 0.039621163 -0.022780132 0.068550445
000280 7f f4 c8 3c 9b 69 cf bc 21 ca 54 3d 41 6e 53 3a
       0.024530647 -0.025318911 0.051950578 0.00080654403
000290 e1 69 19 3d 11 15 97 bb 83 ab f6 bc e1 c5 23 bd
       0.03745449 -0.0046106656 -0.03011108 -0.039983634
0002a0 66 d3 bc bc 76 f1 3d bd ee 21 26 bc 1b 25 1a 3d
       -0.023050021 -0.046372853 -0.010139925 0.037633043
0002b0 b8 90 b3 3c 3d 88 12 bc f7 26 e5 3c 9f 98 8b 3d
       0.021919593 -0.008943615 0.027972681 0.068162195
0002c0 2c 2a 6f 3d c5 2b dc 3b e6 82 4b 3d 83 02 6d bc
       0.058389828 0.006719085 0.04968538 -0.014465931
0002d0 79 86 cc bc 38 1a 3d bd 30 af 1f ba d9 fa 43 bd
       -0.024966465 -0.046167582 -0.00060914736 -0.04784665
0002e0 67 b5 62 bd 63 a1 ef bb 87 46 81 bb 4a 31 32 bd
       -0.05534878 -0.00731294 -0.003945175 -0.043504037
0002f0 2e 86 b8 bc 43 5a ef bc 04 a7 05 3d 33 5c ca bb
       -0.02252492 -0.029217845 0.03262998 -0.006175542
000300 2e 32 7a 3c 79 22 a2 3d 7a 72 d5 bc ef 41 f0 3c
       0.015270753 0.079167314 -0.026055563 0.029328315
000310 0a fa 64 3d ff fa b5 3c 6e eb ce ba b7 10 cf bc
       0.05590252 0.02221441 -0.0015786716 -0.025276525
000320 e7 20 05 bd 90 31 47 3c c1 34 88 bc 9a 05 f7 bc
       -0.03250208 0.012157813 -0.016626718 -0.030154038
000330 46 a7 33 3d 43 4a b6 bc 39 d1 f2 bc 92 99 92 3d
       0.043860696 -0.022252208 -0.02964078 0.071581975
000340 54 06 b9 3b 8c cf 5f 3d 25 80 0c bd 7f 39 8e bd
       0.0056465063 0.05464129 -0.034301896 -0.0694456
000350 ab 63 ba bc c0 f8 2f 3d c5 2d c8 bc 18 f9 b4 bc
       -0.022752604 0.042961836 -0.024435887 -0.022091433
000360 7e ff 4a 3d 20 22 30 bc a0 53 64 bc 2f a6 b8 bd
       0.049560063 -0.0107503235 -0.013935953 -0.09016072
000370 e3 7c e6 bc f1 a7 3b bd 55 82 dc bb 29 91 32 bd
       -0.028135723 -0.04581446 -0.006729404 -0.043595467
000380 8b 65 b4 3b 89 fa 19 bc 3f 12 13 3d 3c 76 a0 bc
       0.005505269 -0.009398111 0.035906073 -0.019587629
000390 c5 b9 13 3d e3 eb cc 3c b6 f4 e5 bc b6 33 30 bd
       0.036065836 0.025014823 -0.028070789 -0.043018065
0003a0 a7 ab 6d ba 1d a8 cf 3c 5a 3b e5 3c 75 0c a5 3c
       -0.0009066411 0.025348717 0.027982403 0.020147542
0003b0 68 f7 47 3d 6d 53 4d bc b1 5f a8 3d 87 d4 79 3c
       0.04881993 -0.012532097 0.08221377 0.015248424
0003c0 15 86 4d 3a 03 3e 7b 3d bf 2a 28 bd e1 dc 0c bd
       0.0007840109 0.061338436 -0.04105639 -0.034390334
0003d0 85 e8 ee bc ac 7f 87 bc 7c f8 a7 bc 72 98 be bc
       -0.029163608 -0.01654037 -0.020504229 -0.023266051
0003e0 ce 74 be bc 4c e4 6f bb 2c e4 35 bd 64 3f 9f bd
       -0.023249056 -0.0036604581 -0.044407055 -0.07775763
0003f0 44 6a a5 bc 9c 6e 03 bd c1 1f e5 39 fc 5e a8 3d
       -0.020192273 -0.032087907 0.00043701942 0.08221242

encoder.2.0.bias f4 [64]
000000 f0 3b 35 bd 56 32 2f bd 2d cf 53 bd ee 45 33 bc
       -0.044246614 -0.042772613 -0.05171125 -0.0109419655
000010 c9 d0 d4 b9 52 20 78 3c fc 05 5f bc 19 12 83 bd
       -0.00040591348 0.0151444245 -0.013612267 -0.06399936
000020 20 db 1c bc 50 47 49 3d 4f ae d8 ba 37 1a 3e bc
       -0.009573728 0.049140275 -0.001653144 -0.01160293
000030 65 6a 2b bc 52 03 2a bd b5 ac 6f bb 7a af 72 3a
       -0.010462378 -0.041507073 -0.0036571447 0.00092577154
000040 2c 24 0c bc b7 90 e5 3c ed 74 ee 3c 4f 56 d2 bc
       -0.008553546 0.028023107 0.029108489 -0.02567592
000050 fe 1a 1f bd 8a c1 56 bb d7 0e 0c bd c8 ce 24 bc
       -0.0388441 -0.0032769167 -0.03419384 -0.010059066
000060 8d 4e 75 bc c9 0c e0 bc 00 3a ed bb 04 98 0c 3d
       -0.014972341 -0.027349846 -0.00723958 0.03432466
000070 a8 a9 44 bd ac 85 a1 3c f2 2f a2 3b 8f 83 94 bc
       -0.04801336 0.01971706 0.004949563 -0.018129138
000080 e3 d7 7f 3d 09 af ae 3c 68 39 d3 bd b0 14 39 bc
       0.062461745 0.021323698 -0.10313684 -0.011296436
000090 63 c9 fe 3c 5a f7 a0 3d b5 bb 80 bb 10 4b 21 3c
       0.031101888 0.078596786 -0.0039286264 0.009844556
0000a0 29 d3 1c bd ea a1 b6 bd 75 7b b9 bb 7d 71 81 bd
       -0.038287316 -0.089176014 -0.005660469 -0.06320474
0000b0 bf d2 32 bc 2d 2d 96 bb b4 79 56 3d 63 af 17 3d
       -0.010914504 -0.004583022 0.05236216 0.037032496
0000c0 f1 43 69 bd a1 ec 06 3d 6d 2f 19 3c 71 9e 9e bc
       -0.05694956 0.03294051 0.009349686 -0.01936266
0000d0 db e4 d9 bc c4 e3 47 3c 56 cb 4c ba 4e f5 09 bd
       -0.026598385 0.0122003 -0.0007812282 -0.033681206
0000e0 7b cd 90 3c a0 de df bb 8e 04 07 bd 99 ed dc 3c
       0.017676106 -0.006831959 -0.032963328 0.026968764
0000f0 56 cb 8f 3c e0 8a 8e bd 7f 39 ca ba c4 31 59 bd
       0.017553013 -0.06960082 -0.0015428512 -0.053025976

encoder.2.1.weight f4 [64]
000000 01 e3 78 3f f5 e7 86 3f fe 12 6f 3f bb d1 87 3f
       0.9722138 1.0539538 0.93388355 1.061088
000010 fc 43 83 3f 30 50 89 3f 34 6f 88 3f e9 a5 81 3f
       1.0255122 1.0727596 1.0658937 1.0128757
000020 01 b9 7c 3f 31 09 76 3f 1a 1b 73 3f de 22 61 3f
       0.98719794 0.96107775 0.9496323 0.8794383
000030 b6 d9 81 3f 41 b0 7a 3f d0 e1 7d 3f 25 7f 81 3f
       1.0144565 0.9792519 0.9917269 1.0116926
000040 15 b8 70 3f 60 11 82 3f 6c 16 7b 3f c0 b3 80 3f
       0.94030887 1.0161552 0.9808109 1.0054855
000050 76 29 81 3f 9b 4d 73 3f 14 5a 7b 3f 04 95 6c 3f
       1.0090778 0.9504029 0.98184323 0.9241488
000060 27 c4 80 3f 8c 79 86 3f 73 2e 8c 3f 71 bc 89 3f
       1.0059861 1.0505843 1.0951675 1.0760633
000070 37 2a 83 3f 38 38 88 3f d0 6d 81 3f 8e fe 7b 3f
       1.0247258 1.0642157 1.0111637 0.98435295
000080 7b 8c 86 3f bd 48 85 3f c1 7e 84 3f f1 26 7d 3f
       1.0511621 1.0412823 1.0351182 0.98887545
000090 fc 8c 79 3f 80 f0 81 3f 6f 7f 7c 3f 3b b5 85 3f
       0.9748075 1.015152 0.9863195 1.0445932
0000a0 0c 6d 7d 3f 03 f4 73 3f 05 e3 86 3f d8 12 80 3f
       0.9899452 0.9529421 1.0538031 1.0005751
0000b0 95 45 83 3f 2f 18 7a 3f e7 96 78 3f 0e b9 85 3f
       1.025561 0.9769315 0.9710526 1.0447099
0000c0 70 50 7d 3f fd 28 76 3f 8d 8e 74 3f 71 44 86 3f
       0.9895086 0.96156293 0.95530015 1.0489637
0000d0 81 9b 78 3f 2b b0 7c 3f 42 f9 7d 3f 5e 2f 87 3f
       0.9711228 0.9870631 0.9920846 1.056133
0000e0 d1 05 7b 3f 2e 63 74 3f e4 02 6c 3f 43 8d 6f 3f
       0.9805575 0.95463836 0.9219191 0.93574923
0000f0 07 85 65 3f fb 65 83 3f 8a db 79 3f 06 cb 83 3f
       0.8965611 1.0265497 0.97600615 1.0296333

encoder.2.1.bias f4 [64]
000000 a9 2c 14 be 05 b4 09 be 08 d0 db bd 8f e1 d6 bd
       -0.14470161 -0.13447578 -0.10733038 -0.10492241
000010 8e f2 ff bd 98 79 77 bd 9d 49 0c be 83 31 27 bd
       -0.124974355 -0.060418695 -0.13699956 -0.040818702
000020 11 30 3b be 67 bf e7 bd 4b 96 de 3b 53 2f d3 bd
       -0.18280055 -0.11315804 0.0067928187 -0.10311761
000030 76 ee ea bd 42 78 41 bd 6f bd 4d be 0d 5e 02 bd
       -0.11471264 -0.047233827 -0.20091794 -0.031827975
000040 d1 be 6c 3b 85 2f 20 be 3a 99 da bd a6 59 0c be
       0.0036124478 -0.15643127 -0.10673757 -0.13706073
000050 d9 15 0f be 8f f0 5e bd ea f6 3c be 27 64 7c bd
       -0.13973178 -0.054428633 -0.18453565 -0.06161895
000060 dc 14 b7 bd f9 7a a2 3d 7c cc 93 bd 16 e8 01 be
       -0.089395255 0.079336114 -0.07216737 -0.1268619
000070 4a 56 43 be b4 7c b7 bd 02 88 d6 bd ff 41 f7 bd
       -0.19075885 -0.08959332 -0.1047516 -0.12073135
000080 d2 23 d8 bd fe d1 19 be a1 88 d1 bd c6 4a e4 bc
       -0.10553707 -0.15021512 -0.10231138 -0.027867686
000090 a9 c3 91 bd c1 2b 2d be 29 c4 85 bd 5f 0f b2 bd
       -0.07117397 -0.16911222 -0.06531555 -0.08694338
0000a0 46 f3 b9 bd 3d 36 a7 bd 46 55 c1 bd a6 e8 c8 bd
       -0.09079604 -0.08164642 -0.09440093 -0.09809999
0000b0 6f dc 9b bd d1 21 0c be 05 fe 76 bd 29 3d dd bd
       -0.07610404 -0.13684775 -0.060300846 -0.10802681
0000c0 10 15 19 be fe ea 21 bd 83 38 cc bd ea 91 06 be
       -0.14949441 -0.039530747 -0.09971716 -0.131416
0000d0 3b 21 81 bd 4f 33 0f be a2 e9 1b 3d cb bc df bd
       -0.06305166 -0.13984416 0.038064606 -0.10924681
0000e0 ef d1 56 3d c7 aa 02 be e6 27 31 be 9f f8 e9 bd
       0.052446302 -0.12760459 -0.17300376 -0.11424374
0000f0 35 af a1 bd dd b5 1d bd 4e 4d 8b bd a7 2c 16 be
       -0.07894746 -0.038503516 -0.06801854 -0.14665471

encoder.2.1.running_mean f4 [64]
000000 48 de 31 3e cc a3 cd be 63 e9 63 bf 5a c3 16 3f
       0.1736995 -0.4016403 -0.89027995 0.5889183
000010 6e cd 04 3d ef d3 0f be fa 26 e2 3d a3 0d d2 bc
       0.032422476 -0.1404569 0.110425904 -0.025641268
000020 e7 e8 14 3f e9 6f c3 bf 28 c2 f1 3e cc ab ad 3f
       0.5816788 -1.5268527 0.47218442 1.3568053
000030 50 8a 0c bf 5e 56 5e 3f ae 67 39 be 98 4c ae 3c
       -0.5489855 0.86850536 -0.18105957 0.021276757
000040 33 dd 2d 3f 00 f0 a8 bd 12 80 05 c0 7d 40 f3 3e
       0.6791565 -0.08248901 -2.0859418 0.47510138
000050 a5 a5 67 bf 0a 39 c3 3e 4d 3a 72 bf f9 e7 57 3f
       -0.9048713 0.38129455 -0.9462021 0.8433834
000060 ba 77 03 3f f9 6b fd 3d c8 21 ff bf cc 8f 83 3b
       0.51354563 0.1237411 -1.9932184 0.0040149447
000070 27 62 84 bd 2c 14 27 c0 9c c1 04 bf 31 0a 32 bf
       -0.064640336 -2.6106062 -0.51857924 -0.695468
000080 7c 3f 9f be 86 9b 23 3f a1 7e b2 be c0 b5 b1 3e
       -0.31103122 0.63909185 -0.34862235 0.34708977
000090 84 81 d0 3e 52 ac 87 bc 46 3e b1 3f 18 00 a4 3d
       0.40723813 -0.01656166 1.3847129 0.080078304
0000a0 28 c5 03 c0 87 2c 14 bf 7d 2d 5f 3d 88 7e 8e 3e
       -2.0589085 -0.57880443 0.05448674 0.2783091
0000b0 23 ce 16 be f0 06 24 3f 2d 49 a8 3f e7 05 82 bf
       -0.14727072 0.64073086 1.3147331 -1.0158051
0000c0 d7 12 a0 3c 6f 80 0b 40 89 9c e0 3f 88 fb 3a be
       0.019540234 2.179714 1.7547771 -0.18260014
0000d0 a0 78 53 bf 58 5e 05 3f fb 21 8e 3f 77 f7 8e bf
       -0.82605934 0.5209708 1.110412 -1.116927
0000e0 e5 7f 22 3f fb 96 ba be 48 84 7f 3e 3d 02 07 40
       0.634764 -0.36443314 0.24952805 2.1095116
0000f0 1f 62 1c 3f 83 36 6d c0 81 f2 42 3e c6 d0 49 bd
       0.6108722 -3.7064521 0.1903782 -0.049271367

encoder.2.1.running_var f4 [64]
000000 b5 50 4a 40 ec de 2b 40 53 3d 4b 40 fa b6 83 40
       3.161176 2.685481 3.175618 4.116086
000010 fc 8d 64 40 2d 62 4b 40 95 09 15 40 24 fa 14 40
       3.571166 3.1778672 2.3287098 2.3277674
000020 d2 d5 34 40 85 0c 7b 40 c0 8e 2a 40 db 06 0e 40
       2.8255506 3.9226391 2.6649628 2.2191684
000030 ab 33 25 40 0d 3d 2a 40 ab 1d 22 40 d3 d8 0f 40
       2.5812786 2.6599762 2.5330608 2.247609
000040 43 50 e8 3f cf 6b 0c 40 76 94 6a 40 3c ed 22 40
       1.8149494 2.19408 3.6653113 2.5457296
000050 61 8e 3f 40 fe 3f f2 3f 45 3a 05 40 84 ff d2 3f
       2.993065 1.8925779 2.0816815 1.6484227
000060 fe e1 81 40 d5 02 0b 40 56 7f 85 40 0f 89 50 40
       4.058837 2.1720479 4.171794 3.2583654
000070 3d 8d 5e 40 6a bf ad 40 4b 2e 3a 40 fc 24 37 40
       3.4773705 5.429616 2.9090755 2.8616323
000080 99 cc 7b 40 a7 59 06 40 32 1c 44 40 61 09 2c 40
       3.9343626 2.099222 3.064221 2.6880724
000090 f9 b7 e2 3f 3a b2 26 40 77 8c 25 40 10 1c 3a 40
       1.7712394 2.604628 2.5866983 2.9079628
0000a0 0a b4 a5 40 91 e9 02 40 07 17 4e 40 13 97 44 40
       5.1782274 2.0455058 3.2201555 3.0717208
0000b0 1b 11 18 40 66 d9 11 40 17 48 3d 40 9c fd 8b 40
       2.376044 2.278894 2.957525 4.374708
0000c0 b7 02 24 40 91 4b 27 40 bd e0 65 40 e5 f3 11 40
       2.5626657 2.6139872 3.591842 2.2805111
0000d0 b3 b0 2b 40 22 af 49 40 77 f5 c6 3f f9 26 1a 40
       2.6826599 3.1513143 1.554366 2.4086287
0000e0 16 fd 0a 40 ee aa 1b 40 21 d4 d8 3f d5 15 f8 3f
       2.1716971 2.4323077 1.6939737 1.9381663
0000f0 ea 18 09 40 28 fd 8d 40 1b 5d 0d 40 56 64 1b 40
       2.1421456 4.437153 2.2088077 2.427999
